pre_model/last_Quadcopter_ep_450_rew_605.7397.pth (torch, 898519 bytes, 54 tensors)

value_mean_std.running_mean f8 [1]
0	0x401b874468c3e57f	6.882096898037502

value_mean_std.running_var f8 [1]
0	0x404a50743c7cbb33	52.628547249702386

value_mean_std.count f8 []
0	0x413c200100000000	1843201.0

running_mean_std.running_mean f8 [19213]
0	0x3ffb3cdea9c61182	1.702360785654577
1	0x3fe765186ba33dcf	0.7310907461450656
2	0x3fda5866841d1e6c	0.4116455354855819
3	0xbf9387b7f6930f75	-0.019072412895880093
4	0x3f800a4b76e8b6c3	0.007832135740581397
5	0xbf493f9304c39b8e	-0.0007705180992417669
6	0x3fed7446d64a9b70	0.9204439339999748
7	0x3fd53cf359f8394b	0.33184512888046375
8	0x3fc5ca6615eda5ba	0.17023922033994926
9	0xbfe3d26b6e6a27ed	-0.6194359928642804
10	0xbfc1c1f168bc5815	-0.1387311707882765
11	0xbfc61cb77eb0bf42	-0.1727513664823111
12	0xbf84a13c22b0c5c4	-0.010073156174345572
13	0x4013fe927d41d061	4.998605687276808
14	0x4013fe927d41d061	4.998605687276808
15	0x4013fe927d41d061	4.998605687276808
16	0x4013fe927d41d061	4.998605687276808
17	0x4013fe927d41d061	4.998605687276808
18	0x4013fe927d41d061	4.998605687276808
19	0x4013fe927d41d061	4.998605687276808
20	0x4013fe927d41d061	4.998605687276808
21	0x4013fe927d41d061	4.998605687276808
22	0x4013fe927d41d061	4.998605687276808
23	0x4013fe927d41d061	4.998605687276808
24	0x4013fe927d41d061	4.998605687276808
25	0x4013fe927d41d061	4.998605687276808
26	0x4013fe927d41d061	4.998605687276808
27	0x4013fe927d41d061	4.998605687276808
28	0x4013fe927d41d061	4.998605687276808
29	0x4013fe927d41d061	4.998605687276808
30	0x4013fe927d41d061	4.998605687276808
31	0x4013fe927d41d061	4.998605687276808
32	0x4013fe927d41d061	4.998605687276808
33	0x4013fe927d41d061	4.998605687276808
34	0x4013fe927d41d061	4.998605687276808
35	0x4013fe927d41d061	4.998605687276808
36	0x4013fe927d41d061	4.998605687276808
37	0x4013fe927d41d061	4.998605687276808
38	0x4013fe927d41d061	4.998605687276808
39	0x4013fe927d41d061	4.998605687276808
40	0x4013fe927d41d061	4.998605687276808
41	0x4013fe927d41d061	4.998605687276808
42	0x4013fe927d41d061	4.998605687276808
43	0x4013fe927d41d061	4.998605687276808
44	0x4013fe927d41d061	4.998605687276808
45	0x4013fe927d41d061	4.998605687276808
46	0x4013fe927d41d061	4.998605687276808
47	0x4013fe927d41d061	4.998605687276808
48	0x4013fe927d41d061	4.998605687276808
49	0x4013fe927d41d061	4.998605687276808
50	0x4013fe927d41d061	4.998605687276808
51	0x4013fe927d41d061	4.998605687276808
52	0x4013fe927d41d061	4.998605687276808
53	0x4013fe927d41d061	4.998605687276808
54	0x4013fe927d41d061	4.998605687276808
55	0x4013fe927d41d061	4.998605687276808
56	0x4013fe927d41d061	4.998605687276808
57	0x4013fe927d41d061	4.998605687276808
58	0x4013fe927d41d061	4.998605687276808
59	0x4013fe927d41d061	4.998605687276808
60	0x4013fe927d41d061	4.998605687276808
61	0x4013fe927d41d061	4.998605687276808
62	0x4013fe927d41d061	4.998605687276808
63	0x4013fe927d41d061	4.998605687276808
64	0x4013fe927d41d061	4.998605687276808
65	0x4013fe927d41d061	4.998605687276808
66	0x4013fe927d41d061	4.998605687276808
67	0x4013fe927d41d061	4.998605687276808
68	0x4013fe927d41d061	4.998605687276808
69	0x4013fe927d41d061	4.998605687276808
70	0x4013fe927d41d061	4.998605687276808
71	0x4013fe927d41d061	4.998605687276808
72	0x4013fe927d41d061	4.998605687276808
73	0x4013fe927d41d061	4.998605687276808
74	0x4013fe927d41d061	4.998605687276808
75	0x4013fe927d41d061	4.998605687276808
76	0x4013fe927d41d061	4.998605687276808
77	0x4013fe927d41d061	4.998605687276808
78	0x4013fe927d41d061	4.998605687276808
79	0x4013fe927d41d061	4.998605687276808
80	0x4013fe927d41d061	4.998605687276808
81	0x4013fe927d41d061	4.998605687276808
82	0x4013fe927d41d061	4.998605687276808
83	0x4013fe927d41d061	4.998605687276808
84	0x4013fe927d41d061	4.998605687276808
85	0x4013fe927d41d061	4.998605687276808
86	0x4013fe927d41d061	4.998605687276808
87	0x4013fe927d41d061	4.998605687276808
88	0x4013fe927d41d061	4.998605687276808
89	0x4013fe927d41d061	4.998605687276808
90	0x4013fe927d41d061	4.998605687276808
91	0x4013fe927d41d061	4.998605687276808
92	0x4013fe927d41d061	4.998605687276808
93	0x4013fe927d41d061	4.998605687276808
94	0x4013fe927d41d061	4.998605687276808
95	0x4013fe927d41d061	4.998605687276808
96	0x4013fe927d41d061	4.998605687276808
97	0x4013fe927d41d061	4.998605687276808
98	0x4013fe927d41d061	4.998605687276808
99	0x4013fe927d41d061	4.998605687276808
100	0x4013fe927d41d061	4.998605687276808
101	0x4013fe927d41d061	4.998605687276808
102	0x4013fe927d41d061	4.998605687276808
103	0x4013fe927d41d061	4.998605687276808
104	0x4013fe927d41d061	4.998605687276808
105	0x4013fe927d41d061	4.998605687276808
106	0x4013fe927d41d061	4.998605687276808
107	0x4013fe927d41d061	4.998605687276808
108	0x4013fe927d41d061	4.998605687276808
109	0x4013fe927d41d061	4.998605687276808
110	0x4013fe927d41d061	4.998605687276808
111	0x4013fe927d41d061	4.998605687276808
112	0x4013fe927d41d061	4.998605687276808
113	0x4013fe927d41d061	4.998605687276808
114	0x4013fe927d41d061	4.998605687276808
115	0x4013fe927d41d061	4.998605687276808
116	0x4013fe927d41d061	4.998605687276808
117	0x4013fe927d41d061	4.998605687276808
118	0x4013fe927d41d061	4.998605687276808
119	0x4013fe927d41d061	4.998605687276808
120	0x4013fe927d41d061	4.998605687276808
121	0x4013fe927d41d061	4.998605687276808
122	0x4013fe927d41d061	4.998605687276808
123	0x4013fe927d41d061	4.998605687276808
124	0x4013fe927d41d061	4.998605687276808
125	0x4013fe927d41d061	4.998605687276808
126	0x4013fe927d41d061	4.998605687276808
127	0x4013fe927d41d061	4.998605687276808
128	0x4013fe927d41d061	4.998605687276808
129	0x4013fe927d41d061	4.998605687276808
130	0x4013fe927d41d061	4.998605687276808
131	0x4013fe927d41d061	4.998605687276808
132	0x4013fe927d41d061	4.998605687276808
133	0x4013fe927d41d061	4.998605687276808
134	0x4013fe927d41d061	4.998605687276808
135	0x4013fe927d41d061	4.998605687276808
136	0x4013fe927d41d061	4.998605687276808
137	0x4013fe927d41d061	4.998605687276808
138	0x4013fe927d41d061	4.998605687276808
139	0x4013fe927d41d061	4.998605687276808
140	0x4013fe927d41d061	4.998605687276808
141	0x4013fe927d41d061	4.998605687276808
142	0x4013fe927d41d061	4.998605687276808
143	0x4013fe927d41d061	4.998605687276808
144	0x4013fe927d41d061	4.998605687276808
145	0x4013fe927d41d061	4.998605687276808
146	0x4013fe927d41d061	4.998605687276808
147	0x4013fe927d41d061	4.998605687276808
148	0x4013fe927d41d061	4.998605687276808
149	0x4013fe927d41d061	4.998605687276808
150	0x4013fe927d41d061	4.998605687276808
151	0x4013fe927d41d061	4.998605687276808
152	0x4013fe927d41d061	4.998605687276808
153	0x4013fe927d41d061	4.998605687276808
154	0x4013fe927d41d061	4.998605687276808
155	0x4013fe927d41d061	4.998605687276808
156	0x4013fe927d41d061	4.998605687276808
157	0x4013fe927d41d061	4.998605687276808
158	0x4013fe927d41d061	4.998605687276808
159	0x4013fe927d41d061	4.998605687276808
160	0x4013fe927d41d061	4.998605687276808
161	0x4013fe927d41d061	4.998605687276808
162	0x4013fe927d41d061	4.998605687276808
163	0x4013fe927d41d061	4.998605687276808
164	0x4013fe927d41d061	4.998605687276808
165	0x4013fe927d41d061	4.998605687276808
166	0x4013fe927d41d061	4.998605687276808
167	0x4013fe927d41d061	4.998605687276808
168	0x4013fe927d41d061	4.998605687276808
169	0x4013fe927d41d061	4.998605687276808
170	0x4013fe927d41d061	4.998605687276808
171	0x4013fe927d41d061	4.998605687276808
172	0x4013fe927d41d061	4.998605687276808
173	0x4013fe927d41d061	4.998605687276808
174	0x4013fe927d41d061	4.998605687276808
175	0x4013fe927d41d061	4.998605687276808
176	0x4013fe927d41d061	4.998605687276808
177	0x4013fe927d41d061	4.998605687276808
178	0x4013fe927d41d061	4.998605687276808
179	0x4013fe927d41d061	4.998605687276808
180	0x4013fe927d41d061	4.998605687276808
181	0x4013fe927d41d061	4.998605687276808
182	0x4013fe927d41d061	4.998605687276808
183	0x4013fe927d41d061	4.998605687276808
184	0x4013fe927d41d061	4.998605687276808
185	0x4013fe927d41d061	4.998605687276808
186	0x4013fe927d41d061	4.998605687276808
187	0x4013fe927d41d061	4.998605687276808
188	0x4013fe927d41d061	4.998605687276808
189	0x4013fe927d41d061	4.998605687276808
190	0x4013fe927d41d061	4.998605687276808
191	0x4013fe927d41d061	4.998605687276808
192	0x4013fe927d41d061	4.998605687276808
193	0x4013fe927d41d061	4.998605687276808
194	0x4013fe927d41d061	4.998605687276808
195	0x4013fe927d41d061	4.998605687276808
196	0x4013fe927d41d061	4.998605687276808
197	0x4013fe927d41d061	4.998605687276808
198	0x4013fe927d41d061	4.998605687276808
199	0x4013fe927d41d061	4.998605687276808
200	0x4013fe927d41d061	4.998605687276808
201	0x4013fe927d41d061	4.998605687276808
202	0x4013fe927d41d061	4.998605687276808
203	0x4013fe927d41d061	4.998605687276808
204	0x4013fe927d41d061	4.998605687276808
205	0x4013fe927d41d061	4.998605687276808
206	0x4013fe927d41d061	4.998605687276808
207	0x4013fe927d41d061	4.998605687276808
208	0x4013fe927d41d061	4.998605687276808
209	0x4013fe927d41d061	4.998605687276808
210	0x4013fe927d41d061	4.998605687276808
211	0x4013fe927d41d061	4.998605687276808
212	0x4013fe927d41d061	4.998605687276808
213	0x4013fe927d41d061	4.998605687276808
214	0x4013fe927d41d061	4.998605687276808
215	0x4013fe927d41d061	4.998605687276808
216	0x4013fe927d41d061	4.998605687276808
217	0x4013fe927d41d061	4.998605687276808
218	0x4013fe927d41d061	4.998605687276808
219	0x4013fe927d41d061	4.998605687276808
220	0x4013fe927d41d061	4.998605687276808
221	0x4013fe927d41d061	4.998605687276808
222	0x4013fe927d41d061	4.998605687276808
223	0x4013fe927d41d061	4.998605687276808
224	0x4013fe927d41d061	4.998605687276808
225	0x4013fe927d41d061	4.998605687276808
226	0x4013fe927d41d061	4.998605687276808
227	0x4013fe927d41d061	4.998605687276808
228	0x4013fe927d41d061	4.998605687276808
229	0x4013fe927d41d061	4.998605687276808
230	0x4013fe927d41d061	4.998605687276808
231	0x4013fe927d41d061	4.998605687276808
232	0x4013fe927d41d061	4.998605687276808
233	0x4013fe927d41d061	4.998605687276808
234	0x4013fe927d41d061	4.998605687276808
235	0x4013fe927d41d061	4.998605687276808
236	0x4013fe927d41d061	4.998605687276808
237	0x4013fe927d41d061	4.998605687276808
238	0x4013fe927d41d061	4.998605687276808
239	0x4013fe927d41d061	4.998605687276808
240	0x4013fe927d41d061	4.998605687276808
241	0x4013fe927d41d061	4.998605687276808
242	0x4013fe927d41d061	4.998605687276808
243	0x4013fe927d41d061	4.998605687276808
244	0x4013fe927d41d061	4.998605687276808
245	0x4013fe927d41d061	4.998605687276808
246	0x4013fe927d41d061	4.998605687276808
247	0x4013fe927d41d061	4.998605687276808
248	0x4013fe927d41d061	4.998605687276808
249	0x4013fe927d41d061	4.998605687276808
250	0x4013fe927d41d061	4.998605687276808
251	0x4013fe927d41d061	4.998605687276808
252	0x4013fe927d41d061	4.998605687276808
253	0x4013fe927d41d061	4.998605687276808
254	0x4013fe927d41d061	4.998605687276808
255	0x4013fe927d41d061	4.998605687276808

running_mean_std.running_var f8 [19213]
0	0x4009af929b63c484	3.2107288493940036
1	0x3fe77ed49e4e9997	0.7342322437223626
2	0x3fc5a4019c9fe78e	0.16906757495581498
3	0x3fa596f1052b4a5b	0.04216721714114576
4	0x3faa508c3b0a3568	0.05139578076078061
5	0x3f54c8e6060cbfba	0.0012686010670215201
6	0x3fad5f7ad42b3dc2	0.057369078063512116
7	0x3ff0a18917332a6a	1.0394373804325832
8	0x3fe393f4c5fba926	0.6118110529762688
9	0x3ff434175361f327	1.2627175576337295
10	0x4008e49017c105bd	3.1116029601841704
11	0x400ae7f055c652e7	3.363251371493209
12	0x3fd859479ca5b6e0	0.38044920251455316
13	0x3f7c938ab691d428	0.006976644371310882
14	0x3f7c938ab691d428	0.006976644371310882
15	0x3f7c938ab691d428	0.006976644371310882
16	0x3f7c938ab691d428	0.006976644371310882
17	0x3f7c938ab691d428	0.006976644371310882
18	0x3f7c938ab691d428	0.006976644371310882
19	0x3f7c938ab691d428	0.006976644371310882
20	0x3f7c938ab691d428	0.006976644371310882
21	0x3f7c938ab691d428	0.006976644371310882
22	0x3f7c938ab691d428	0.006976644371310882
23	0x3f7c938ab691d428	0.006976644371310882
24	0x3f7c938ab691d428	0.006976644371310882
25	0x3f7c938ab691d428	0.006976644371310882
26	0x3f7c938ab691d428	0.006976644371310882
27	0x3f7c938ab691d428	0.006976644371310882
28	0x3f7c938ab691d428	0.006976644371310882
29	0x3f7c938ab691d428	0.006976644371310882
30	0x3f7c938ab691d428	0.006976644371310882
31	0x3f7c938ab691d428	0.006976644371310882
32	0x3f7c938ab691d428	0.006976644371310882
33	0x3f7c938ab691d428	0.006976644371310882
34	0x3f7c938ab691d428	0.006976644371310882
35	0x3f7c938ab691d428	0.006976644371310882
36	0x3f7c938ab691d428	0.006976644371310882
37	0x3f7c938ab691d428	0.006976644371310882
38	0x3f7c938ab691d428	0.006976644371310882
39	0x3f7c938ab691d428	0.006976644371310882
40	0x3f7c938ab691d428	0.006976644371310882
41	0x3f7c938ab691d428	0.006976644371310882
42	0x3f7c938ab691d428	0.006976644371310882
43	0x3f7c938ab691d428	0.006976644371310882
44	0x3f7c938ab691d428	0.006976644371310882
45	0x3f7c938ab691d428	0.006976644371310882
46	0x3f7c938ab691d428	0.006976644371310882
47	0x3f7c938ab691d428	0.006976644371310882
48	0x3f7c938ab691d428	0.006976644371310882
49	0x3f7c938ab691d428	0.006976644371310882
50	0x3f7c938ab691d428	0.006976644371310882
51	0x3f7c938ab691d428	0.006976644371310882
52	0x3f7c938ab691d428	0.006976644371310882
53	0x3f7c938ab691d428	0.006976644371310882
54	0x3f7c938ab691d428	0.006976644371310882
55	0x3f7c938ab691d428	0.006976644371310882
56	0x3f7c938ab691d428	0.006976644371310882
57	0x3f7c938ab691d428	0.006976644371310882
58	0x3f7c938ab691d428	0.006976644371310882
59	0x3f7c938ab691d428	0.006976644371310882
60	0x3f7c938ab691d428	0.006976644371310882
61	0x3f7c938ab691d428	0.006976644371310882
62	0x3f7c938ab691d428	0.006976644371310882
63	0x3f7c938ab691d428	0.006976644371310882
64	0x3f7c938ab691d428	0.006976644371310882
65	0x3f7c938ab691d428	0.006976644371310882
66	0x3f7c938ab691d428	0.006976644371310882
67	0x3f7c938ab691d428	0.006976644371310882
68	0x3f7c938ab691d428	0.006976644371310882
69	0x3f7c938ab691d428	0.006976644371310882
70	0x3f7c938ab691d428	0.006976644371310882
71	0x3f7c938ab691d428	0.006976644371310882
72	0x3f7c938ab691d428	0.006976644371310882
73	0x3f7c938ab691d428	0.006976644371310882
74	0x3f7c938ab691d428	0.006976644371310882
75	0x3f7c938ab691d428	0.006976644371310882
76	0x3f7c938ab691d428	0.006976644371310882
77	0x3f7c938ab691d428	0.006976644371310882
78	0x3f7c938ab691d428	0.006976644371310882
79	0x3f7c938ab691d428	0.006976644371310882
80	0x3f7c938ab691d428	0.006976644371310882
81	0x3f7c938ab691d428	0.006976644371310882
82	0x3f7c938ab691d428	0.006976644371310882
83	0x3f7c938ab691d428	0.006976644371310882
84	0x3f7c938ab691d428	0.006976644371310882
85	0x3f7c938ab691d428	0.006976644371310882
86	0x3f7c938ab691d428	0.006976644371310882
87	0x3f7c938ab691d428	0.006976644371310882
88	0x3f7c938ab691d428	0.006976644371310882
89	0x3f7c938ab691d428	0.006976644371310882
90	0x3f7c938ab691d428	0.006976644371310882
91	0x3f7c938ab691d428	0.006976644371310882
92	0x3f7c938ab691d428	0.006976644371310882
93	0x3f7c938ab691d428	0.006976644371310882
94	0x3f7c938ab691d428	0.006976644371310882
95	0x3f7c938ab691d428	0.006976644371310882
96	0x3f7c938ab691d428	0.006976644371310882
97	0x3f7c938ab691d428	0.006976644371310882
98	0x3f7c938ab691d428	0.006976644371310882
99	0x3f7c938ab691d428	0.006976644371310882
100	0x3f7c938ab691d428	0.006976644371310882
101	0x3f7c938ab691d428	0.006976644371310882
102	0x3f7c938ab691d428	0.006976644371310882
103	0x3f7c938ab691d428	0.006976644371310882
104	0x3f7c938ab691d428	0.006976644371310882
105	0x3f7c938ab691d428	0.006976644371310882
106	0x3f7c938ab691d428	0.006976644371310882
107	0x3f7c938ab691d428	0.006976644371310882
108	0x3f7c938ab691d428	0.006976644371310882
109	0x3f7c938ab691d428	0.006976644371310882
110	0x3f7c938ab691d428	0.006976644371310882
111	0x3f7c938ab691d428	0.006976644371310882
112	0x3f7c938ab691d428	0.006976644371310882
113	0x3f7c938ab691d428	0.006976644371310882
114	0x3f7c938ab691d428	0.006976644371310882
115	0x3f7c938ab691d428	0.006976644371310882
116	0x3f7c938ab691d428	0.006976644371310882
117	0x3f7c938ab691d428	0.006976644371310882
118	0x3f7c938ab691d428	0.006976644371310882
119	0x3f7c938ab691d428	0.006976644371310882
120	0x3f7c938ab691d428	0.006976644371310882
121	0x3f7c938ab691d428	0.006976644371310882
122	0x3f7c938ab691d428	0.006976644371310882
123	0x3f7c938ab691d428	0.006976644371310882
124	0x3f7c938ab691d428	0.006976644371310882
125	0x3f7c938ab691d428	0.006976644371310882
126	0x3f7c938ab691d428	0.006976644371310882
127	0x3f7c938ab691d428	0.006976644371310882
128	0x3f7c938ab691d428	0.006976644371310882
129	0x3f7c938ab691d428	0.006976644371310882
130	0x3f7c938ab691d428	0.006976644371310882
131	0x3f7c938ab691d428	0.006976644371310882
132	0x3f7c938ab691d428	0.006976644371310882
133	0x3f7c938ab691d428	0.006976644371310882
134	0x3f7c938ab691d428	0.006976644371310882
135	0x3f7c938ab691d428	0.006976644371310882
136	0x3f7c938ab691d428	0.006976644371310882
137	0x3f7c938ab691d428	0.006976644371310882
138	0x3f7c938ab691d428	0.006976644371310882
139	0x3f7c938ab691d428	0.006976644371310882
140	0x3f7c938ab691d428	0.006976644371310882
141	0x3f7c938ab691d428	0.006976644371310882
142	0x3f7c938ab691d428	0.006976644371310882
143	0x3f7c938ab691d428	0.006976644371310882
144	0x3f7c938ab691d428	0.006976644371310882
145	0x3f7c938ab691d428	0.006976644371310882
146	0x3f7c938ab691d428	0.006976644371310882
147	0x3f7c938ab691d428	0.006976644371310882
148	0x3f7c938ab691d428	0.006976644371310882
149	0x3f7c938ab691d428	0.006976644371310882
150	0x3f7c938ab691d428	0.006976644371310882
151	0x3f7c938ab691d428	0.006976644371310882
152	0x3f7c938ab691d428	0.006976644371310882
153	0x3f7c938ab691d428	0.006976644371310882
154	0x3f7c938ab691d428	0.006976644371310882
155	0x3f7c938ab691d428	0.006976644371310882
156	0x3f7c938ab691d428	0.006976644371310882
157	0x3f7c938ab691d428	0.006976644371310882
158	0x3f7c938ab691d428	0.006976644371310882
159	0x3f7c938ab691d428	0.006976644371310882
160	0x3f7c938ab691d428	0.006976644371310882
161	0x3f7c938ab691d428	0.006976644371310882
162	0x3f7c938ab691d428	0.006976644371310882
163	0x3f7c938ab691d428	0.006976644371310882
164	0x3f7c938ab691d428	0.006976644371310882
165	0x3f7c938ab691d428	0.006976644371310882
166	0x3f7c938ab691d428	0.006976644371310882
167	0x3f7c938ab691d428	0.006976644371310882
168	0x3f7c938ab691d428	0.006976644371310882
169	0x3f7c938ab691d428	0.006976644371310882
170	0x3f7c938ab691d428	0.006976644371310882
171	0x3f7c938ab691d428	0.006976644371310882
172	0x3f7c938ab691d428	0.006976644371310882
173	0x3f7c938ab691d428	0.006976644371310882
174	0x3f7c938ab691d428	0.006976644371310882
175	0x3f7c938ab691d428	0.006976644371310882
176	0x3f7c938ab691d428	0.006976644371310882
177	0x3f7c938ab691d428	0.006976644371310882
178	0x3f7c938ab691d428	0.006976644371310882
179	0x3f7c938ab691d428	0.006976644371310882
180	0x3f7c938ab691d428	0.006976644371310882
181	0x3f7c938ab691d428	0.006976644371310882
182	0x3f7c938ab691d428	0.006976644371310882
183	0x3f7c938ab691d428	0.006976644371310882
184	0x3f7c938ab691d428	0.006976644371310882
185	0x3f7c938ab691d428	0.006976644371310882
186	0x3f7c938ab691d428	0.006976644371310882
187	0x3f7c938ab691d428	0.006976644371310882
188	0x3f7c938ab691d428	0.006976644371310882
189	0x3f7c938ab691d428	0.006976644371310882
190	0x3f7c938ab691d428	0.006976644371310882
191	0x3f7c938ab691d428	0.006976644371310882
192	0x3f7c938ab691d428	0.006976644371310882
193	0x3f7c938ab691d428	0.006976644371310882
194	0x3f7c938ab691d428	0.006976644371310882
195	0x3f7c938ab691d428	0.006976644371310882
196	0x3f7c938ab691d428	0.006976644371310882
197	0x3f7c938ab691d428	0.006976644371310882
198	0x3f7c938ab691d428	0.006976644371310882
199	0x3f7c938ab691d428	0.006976644371310882
200	0x3f7c938ab691d428	0.006976644371310882
201	0x3f7c938ab691d428	0.006976644371310882
202	0x3f7c938ab691d428	0.006976644371310882
203	0x3f7c938ab691d428	0.006976644371310882
204	0x3f7c938ab691d428	0.006976644371310882
205	0x3f7c938ab691d428	0.006976644371310882
206	0x3f7c938ab691d428	0.006976644371310882
207	0x3f7c938ab691d428	0.006976644371310882
208	0x3f7c938ab691d428	0.006976644371310882
209	0x3f7c938ab691d428	0.006976644371310882
210	0x3f7c938ab691d428	0.006976644371310882
211	0x3f7c938ab691d428	0.006976644371310882
212	0x3f7c938ab691d428	0.006976644371310882
213	0x3f7c938ab691d428	0.006976644371310882
214	0x3f7c938ab691d428	0.006976644371310882
215	0x3f7c938ab691d428	0.006976644371310882
216	0x3f7c938ab691d428	0.006976644371310882
217	0x3f7c938ab691d428	0.006976644371310882
218	0x3f7c938ab691d428	0.006976644371310882
219	0x3f7c938ab691d428	0.006976644371310882
220	0x3f7c938ab691d428	0.006976644371310882
221	0x3f7c938ab691d428	0.006976644371310882
222	0x3f7c938ab691d428	0.006976644371310882
223	0x3f7c938ab691d428	0.006976644371310882
224	0x3f7c938ab691d428	0.006976644371310882
225	0x3f7c938ab691d428	0.006976644371310882
226	0x3f7c938ab691d428	0.006976644371310882
227	0x3f7c938ab691d428	0.006976644371310882
228	0x3f7c938ab691d428	0.006976644371310882
229	0x3f7c938ab691d428	0.006976644371310882
230	0x3f7c938ab691d428	0.006976644371310882
231	0x3f7c938ab691d428	0.006976644371310882
232	0x3f7c938ab691d428	0.006976644371310882
233	0x3f7c938ab691d428	0.006976644371310882
234	0x3f7c938ab691d428	0.006976644371310882
235	0x3f7c938ab691d428	0.006976644371310882
236	0x3f7c938ab691d428	0.006976644371310882
237	0x3f7c938ab691d428	0.006976644371310882
238	0x3f7c938ab691d428	0.006976644371310882
239	0x3f7c938ab691d428	0.006976644371310882
240	0x3f7c938ab691d428	0.006976644371310882
241	0x3f7c938ab691d428	0.006976644371310882
242	0x3f7c938ab691d428	0.006976644371310882
243	0x3f7c938ab691d428	0.006976644371310882
244	0x3f7c938ab691d428	0.006976644371310882
245	0x3f7c938ab691d428	0.006976644371310882
246	0x3f7c938ab691d428	0.006976644371310882
247	0x3f7c938ab691d428	0.006976644371310882
248	0x3f7c938ab691d428	0.006976644371310882
249	0x3f7c938ab691d428	0.006976644371310882
250	0x3f7c938ab691d428	0.006976644371310882
251	0x3f7c938ab691d428	0.006976644371310882
252	0x3f7c938ab691d428	0.006976644371310882
253	0x3f7c938ab691d428	0.006976644371310882
254	0x3f7c938ab691d428	0.006976644371310882
255	0x3f7c938ab691d428	0.006976644371310882

running_mean_std.count f8 []
0	0x412c200200000000	921601.0

a2c_network.sigma f4 [4]
0	0x00000000	0.0
1	0x00000000	0.0
2	0x00000000	0.0
3	0x00000000	0.0

a2c_network.physical_mlp.0.weight f4 [256, 13]
0	0x3e97c107	0.29639456
1	0x3f24f464	0.6443541
2	0x3c151d00	0.009101152
3	0x3ee79a5d	0.45234957
4	0x3e8c2d21	0.2737818
5	0xbbde7fd0	-0.006790139
6	0xbe177463	-0.14790492
7	0x3dcd86c4	0.1003547
8	0xbd5ed53f	-0.054402586
9	0xbf1ea8e3	-0.6197645
10	0x3f751247	0.95731014
11	0x3ed886e3	0.4229041
12	0xbdf1f157	-0.1181361
13	0xbcc849b4	-0.024449207
14	0x3e8a73f7	0.270416
15	0xbf142752	-0.578725
16	0xbd4a9b50	-0.049464524
17	0xbd4c6b02	-0.049906738
18	0x3def468f	0.1168338
19	0xbe5d929d	-0.2163796
20	0xbe7860fb	-0.24255745
21	0x3e329e7a	0.17443267
22	0x3ebae5ff	0.36503598
23	0xbdaaf0d3	-0.08346715
24	0xbeffe019	-0.4997566
25	0xbe556308	-0.20838559
26	0xbd3bea2e	-0.045877628
27	0xbe6a120f	-0.22858451
28	0x3d28a8d6	0.04117664
29	0xbe8a01bd	-0.2695445
30	0x3e642cc5	0.22282703
31	0xbe23b18b	-0.15985696
32	0x3f09bc54	0.5380299
33	0x3aa66fc1	0.00126981
34	0x3dcd4dc3	0.100245975
35	0x3e622418	0.22084081
36	0xbdf7bc24	-0.12096432
37	0x3e1cfa33	0.15329818
38	0xbad998f8	-0.0016601374
39	0x3df2b62d	0.118511535
40	0xbd9198df	-0.07109236
41	0xbcc1c332	-0.023652647
42	0x3e88a349	0.26687077
43	0x3ef973ba	0.48721105
44	0x3ed903ee	0.4238581
45	0xbe2f88a6	-0.17141971
46	0xbd96b948	-0.07359558
47	0xbe7fedc7	-0.24993049
48	0x3ebf27ed	0.37335148
49	0xbde7dba8	-0.11321193
50	0xbe56e786	-0.20986757
51	0x3ead87bc	0.3389262
52	0x3c7b52a3	0.015339526
53	0x3e81b995	0.253369
54	0x3e463f73	0.19360141
55	0x3e9b8038	0.3037126
56	0xbdbe6839	-0.09297223
57	0xbe775a18	-0.24155462
58	0x3e9557a7	0.29168436
59	0xbea862a7	-0.32887766
60	0x3cd0bfd9	0.025482105
61	0xbf2b0b69	-0.66814286
62	0x3ed91677	0.42399952
63	0xbe88aad8	-0.26692843
64	0x3da892b8	0.082311094
65	0x3e39ad23	0.18132453
66	0x3dd44c2c	0.10366091
67	0x3e419546	0.189046
68	0xbefc0dbd	-0.4922923
69	0xbee9d839	-0.45672777
70	0x3ec049e8	0.37556386
71	0xbd47750d	-0.048695613
72	0x3dc39dda	0.09551592
73	0xbe45de5f	-0.19323109
74	0xbee4d130	-0.44690847
75	0xbf306c54	-0.68915296
76	0xbe8e261b	-0.27763447
77	0x3e758d8e	0.2397978
78	0xbda277f7	-0.07933038
79	0x3edf7e1a	0.43650895
80	0x3e540ad1	0.20707251
81	0xbdfec9e9	-0.12440855
82	0x3db060d0	0.086122155
83	0xbe80a071	-0.25122407
84	0x3e0e5286	0.13898668
85	0xbe3413aa	-0.17585626
86	0x3b697190	0.0035620667
87	0xbe486674	-0.19570333
88	0xbeb21f58	-0.34789538
89	0x3e3020de	0.17200038
90	0xbd90dc67	-0.070732884
91	0xbd9f3f6a	-0.07775767
92	0x3e9d9223	0.30775556
93	0x3e03d1d9	0.1287302
94	0x3dadc019	0.08483905
95	0xbd2a934b	-0.041644376
96	0x3e0db7e1	0.13839675
97	0xbe8dac8a	-0.276707
98	0x3e9f8657	0.3115718
99	0xbe4a1870	-0.19735885
100	0xbed007be	-0.40630907
101	0xbd9ee71f	-0.077589266
102	0x3c23aa5b	0.009989346
103	0xbe9cfb0e	-0.3066029
104	0x3d7c96ee	0.061667375
105	0xbe0b8ff9	-0.1362914
106	0xbe242fab	-0.16033809
107	0x3da6bdb9	0.081416555
108	0xbe88ff95	-0.26757494
109	0xbe7a8f53	-0.24468736
110	0x3ef088d8	0.46979403
111	0x3d0c95d6	0.034322582
112	0xbecd699d	-0.4011964
113	0xbec66f4e	-0.38756794
114	0xbe190c87	-0.14946185
115	0xbe580614	-0.21096069
116	0xbe1aba4e	-0.15110132
117	0x3d36e894	0.044655398
118	0xbe5fb854	-0.2184766
119	0xbe5153b4	-0.20442086
120	0xbd539a5f	-0.05166089
121	0x3e3b0d42	0.18266776
122	0x3ed378ef	0.41303203
123	0xbe3589ba	-0.1772832
124	0xbefe5868	-0.49676824
125	0xbed16572	-0.4089771
126	0xbe76732d	-0.24067374
127	0xbe13cf38	-0.14434516
128	0x3deef5d7	0.11667984
129	0x3eb0ee0f	0.34556624
130	0xbd82dd78	-0.06389898
131	0x3f1a7a23	0.60342616
132	0xbdf89f33	-0.1213974
133	0x3ee0c83e	0.43902773
134	0xbf18e28b	-0.5972068
135	0x3e270f8c	0.16314524
136	0xbcb8f8d5	-0.02257959
137	0xbed5f1af	-0.41785952
138	0xbd90c2a9	-0.070683785
139	0x3e4c9049	0.19976915
140	0x3f70522a	0.9387537
141	0x3e0c184f	0.13681148
142	0x3f39fb06	0.72648656
143	0xbe6bf6ad	-0.23043318
144	0xbe0234f0	-0.12715507
145	0xbdcbe964	-0.09956625
146	0x3eded9d3	0.43525562
147	0xbe2aa873	-0.16665821
148	0x3f195162	0.59889805
149	0xbeadd230	-0.33949423
150	0x39077fe2	0.00012922243
151	0x3c90b2da	0.017663408
152	0xbe4b6a7c	-0.1986484
153	0x3dbdbf91	0.09265054
154	0xbebb3512	-0.36563927
155	0xbeae3b59	-0.34029654
156	0x3eaeafbd	0.34118453
157	0xbe108c5c	-0.14116043
158	0xbe4c92e9	-0.19977917
159	0x3db6d5a8	0.089274704
160	0x3e70fab2	0.23533133
161	0xbf1751c6	-0.5910915
162	0x3d25d176	0.04048296
163	0xbcae769e	-0.021296795
164	0xbc7d8a66	-0.015474891
165	0x3e8183c4	0.25295842
166	0xbe9aca0b	-0.30232272
167	0x3eda74ba	0.4266718
168	0xbd73e880	-0.0595479
169	0xbd067b41	-0.032832388
170	0xbe15fdac	-0.1464755
171	0xbe6b89e8	-0.23001826
172	0x3daab7ef	0.08335864
173	0x3cf0d062	0.02939624
174	0xbecb3025	-0.3968517
175	0xbc92245b	-0.017839601
176	0xbe56d0e4	-0.20978123
177	0xbd8b50b3	-0.068025015
178	0x3eb4f064	0.35339653
179	0xbdcd0a9c	-0.10011789
180	0xbd10fed9	-0.03539929
181	0xbe318693	-0.17336492
182	0x3d270935	0.040780265
183	0xbc997e88	-0.018737093
184	0x3db6498f	0.08900749
185	0x3e95c412	0.29251152
186	0xbf1b5730	-0.6067991
187	0xbdbca7b5	-0.09211675
188	0x3e7bd946	0.24594602
189	0x3e9cc11f	0.3061609
190	0xbb57c1f5	-0.0032922004
191	0xbec8c275	-0.3921086
192	0x3f16ac99	0.58857113
193	0xbe125d66	-0.14293441
194	0xbe895ec9	-0.26830128
195	0xbd959985	-0.07304672
196	0x3da1a79b	0.07893296
197	0xbe53ed38	-0.2069596
198	0xbd0ab8e0	-0.033867717
199	0xbe304a55	-0.17215855
200	0xbe57cd6f	-0.2107446
201	0xbccc4bb3	-0.02493844
202	0xbcb643c3	-0.022249108
203	0xbcb87425	-0.02251632
204	0x3ca73dff	0.020415304
205	0xbed2f897	-0.41205284
206	0xbe6a9c5a	-0.22911206
207	0xbe68dba2	-0.22740033
208	0xbf2b98c4	-0.67029977
209	0x3e496da1	0.19670726
210	0x3e2ef34a	0.17084995
211	0xbcff36ad	-0.031154001
212	0xbdc6b1c1	-0.097018726
213	0x3d13fbcd	0.036128808
214	0xbe53a8df	-0.20669888
215	0x3ec1f51e	0.37882322
216	0xbcf86290	-0.030320436
217	0xbd691802	-0.05690766
218	0xbe4062ff	-0.18787764
219	0xbe13bbd0	-0.14427114
220	0xbe84bc1b	-0.25924763
221	0x3f130873	0.5743477
222	0xbe7f4e1a	-0.24932137
223	0xbc0189c4	-0.007906381
224	0xbf00a492	-0.50251114
225	0x3d0e8def	0.034803327
226	0x3a066d99	0.00051280257
227	0xbdee9e0a	-0.11651237
228	0xbeaaa4ef	-0.3332896
229	0x3d8e9960	0.06962848
230	0xbefd4980	-0.4947014
231	0xbdeb669b	-0.1149418
232	0x3e205395	0.15656884
233	0x3ddf9ecc	0.1091896
234	0xbd375b6a	-0.044764914
235	0x3e170180	0.14746666
236	0xbe9cf2b7	-0.30653927
237	0xbe9f0ad2	-0.31062943
238	0xbf20819f	-0.62697786
239	0xbe5513f3	-0.20808391
240	0x3d9b1536	0.07572405
241	0xbebc61f5	-0.36793485
242	0xbe85133a	-0.2599123
243	0xbe7b498a	-0.24539772
244	0xbee20a4f	-0.4414849
245	0x3e279454	0.16365176
246	0xbe80445c	-0.25052154
247	0xbe826974	-0.2547108
248	0xbf1b33db	-0.60626
249	0x3e91dac2	0.2848721
250	0x3eb2d3cf	0.34927222
251	0xbe4a65cf	-0.197654
252	0xbef3795e	-0.47553533
253	0xbebf972f	-0.3742003
254	0x3d5e2a25	0.05423941
255	0xbd8ddf60	-0.06927371

a2c_network.physical_mlp.0.bias f4 [256]
0	0x3e3b4515	0.18288071
1	0xbf113276	-0.5671762
2	0x3edbb63c	0.4291247
3	0xbedb4673	-0.42827186
4	0xbdfc49a8	-0.12318736
5	0xbede0dc6	-0.43369883
6	0xbe9b144e	-0.3028893
7	0xbea9e9e6	-0.33186263
8	0x3e84a5a5	0.25907627
9	0xbf06ac40	-0.5260658
10	0xbd8c4c51	-0.06850494
11	0xbedfbcd9	-0.43698767
12	0xbe91c00a	-0.28466827
13	0x3da2296c	0.07918057
14	0xbc60dd1b	-0.013724591
15	0xbf2b38f1	-0.6688376
16	0xbee78d03	-0.4522477
17	0x3d24c000	0.040222168
18	0xbe799976	-0.24374947
19	0xbee11700	-0.4396286
20	0xbec4a5c9	-0.38407734
21	0xbeb92a17	-0.36164925
22	0x3e8d0e98	0.27550197
23	0x3e173529	0.14766373
24	0x3da3493f	0.07972955
25	0x3e10a8fe	0.14126965
26	0xbf4269d4	-0.7594273
27	0xbec487ae	-0.38384765
28	0xbea30e76	-0.3184697
29	0xbf35a7fc	-0.7095945
30	0xbebd59c1	-0.3698254
31	0xbe864865	-0.26227108
32	0xbee88cf4	-0.4542004
33	0xbf12b283	-0.5730364
34	0xbdf6c297	-0.12048834
35	0xbd7134ea	-0.058888353
36	0xbe76619c	-0.24060673
37	0xbd78fb0a	-0.060786285
38	0xbec0d760	-0.37664318
39	0xbf063e10	-0.5243845
40	0x3ecf192b	0.4044889
41	0x3ee35faa	0.44408923
42	0xbdf8fe3a	-0.12157865
43	0xbe93e422	-0.2888499
44	0xbf04825e	-0.51761425
45	0xbf25cf10	-0.6476908
46	0x3e8ce2d2	0.275168
47	0xbf08890c	-0.53334117
48	0xbf408493	-0.7520229
49	0x3ef7a2e9	0.48366478
50	0xbd646d18	-0.055768102
51	0x3bfa8e34	0.0076463465
52	0x3e52ff4f	0.20605205
53	0xbf16b0b2	-0.58863366
54	0xbe44e86f	-0.19229291
55	0x3e99b214	0.30018675
56	0xbf1acc6d	-0.6046818
57	0xbf28b438	-0.6589999
58	0x3e4e26db	0.2013201
59	0xbf01e0ac	-0.5073345
60	0xbe9f9fd4	-0.31176627
61	0xbf06b1ab	-0.5261485
62	0xbef5ecb5	-0.48032156
63	0xbf31acee	-0.69404495
64	0x3d37e0d0	0.044892132
65	0xbe3b7e0c	-0.18309802
66	0xbee9fcc1	-0.45700648
67	0x3e0a9d7d	0.1353664
68	0xbf0f50e3	-0.559828
69	0xbec4d25c	-0.3844174
70	0xbee946c9	-0.45561817
71	0x3db44577	0.08802312
72	0xbf043e8f	-0.51657957
73	0xbe740961	-0.23831703
74	0x3e97beab	0.29637656
75	0xbeac9c8c	-0.33713186
76	0x3e9fe423	0.31228742
77	0x3e0ce898	0.13760602
78	0x3dd1364c	0.102154344
79	0xbf2210b1	-0.6330672
80	0xbf0e4b4b	-0.5558364
81	0xbef4bc90	-0.47800112
82	0xbefcd087	-0.49377844
83	0x3e1f85f4	0.15578443
84	0xbf128e1d	-0.572481
85	0xbf2f2b5d	-0.6842554
86	0xbf070350	-0.5273943
87	0x3ce416dd	0.027842933
88	0x3e212377	0.15736185
89	0xbe67d23b	-0.2263879
90	0xbe2e14af	-0.17000078
91	0xbf05ce78	-0.5226817
92	0xbd06d031	-0.03291339
93	0xbcbe8e5f	-0.023261247
94	0xbd87fecc	-0.066403955
95	0xbda62502	-0.081125274
96	0x3ecd9215	0.40150514
97	0xbf132c18	-0.57489157
98	0x3dcb5a7c	0.09929368
99	0xbf2247a1	-0.6339055
100	0x3ee987af	0.4561133
101	0xbf30aa76	-0.690101
102	0xbdcacf8f	-0.0990287
103	0xbf2018bc	-0.6253774
104	0xbb12653e	-0.0022338177
105	0x3e500b5c	0.20316833
106	0x3eee2846	0.465151
107	0xbe938982	-0.28815848
108	0x3ddaa75a	0.10676451
109	0xbd409011	-0.047012392
110	0xbea986f8	-0.33110785
111	0x3d618f5d	0.055068363
112	0xbf066b5a	-0.52507555
113	0xbe2d43f4	-0.16920453
114	0xbf1f556f	-0.62239736
115	0xbe5132e0	-0.20429564
116	0x3e674b5f	0.22587346
117	0x3ece501b	0.4029549
118	0x3e21cced	0.15800829
119	0xbe91a05f	-0.28442666
120	0xbf194def	-0.5988454
121	0xbf06d642	-0.5267068
122	0x3e271b2b	0.16318958
123	0xbe915d34	-0.2839142
124	0x3da497be	0.08036755
125	0xbf4485eb	-0.7676684
126	0xbf070010	-0.5273447
127	0x3cdfbe5e	0.027312454
128	0xbe2332ab	-0.15937297
129	0x3e383c72	0.17991808
130	0xbdb66270	-0.08905494
131	0xbe5cbe83	-0.2155705
132	0xbf11437c	-0.567436
133	0xbe4839e7	-0.19553338
134	0x3cc9b773	0.024623608
135	0xbb86898e	-0.0041057533
136	0x3efe076f	0.49615046
137	0xbeefd9da	-0.46845895
138	0xbf3f3bf0	-0.7470083
139	0xbd70b7ec	-0.05876915
140	0xbde7ed6a	-0.1132458
141	0xbe83d318	-0.2574699
142	0x3eccd917	0.40009376
143	0x3d26b667	0.040701296
144	0xbe80a2fa	-0.2512434
145	0xbd87c24e	-0.066288576
146	0x3db3e0b1	0.08783091
147	0xbd86441f	-0.06555962
148	0xbe9defc9	-0.30847004
149	0xbef75521	-0.48307136
150	0xbf4ffc03	-0.81243914
151	0xbed21c92	-0.41037422
152	0x3ebcef3e	0.36901277
153	0xbf16124b	-0.5862166
154	0x3e1fb4e3	0.15596347
155	0xbf3139bf	-0.6922874
156	0x3ed0d087	0.40784094
157	0x3e977f5b	0.29589352
158	0xbd4f2ced	-0.050579954
159	0x3eae5162	0.34046465
160	0xbe843ec9	-0.2582915
161	0xbeec88dd	-0.46198168
162	0xbf0848b2	-0.53235924
163	0xbeff413b	-0.49854454
164	0x3eb8eb77	0.36117145
165	0xbeef3444	-0.46719563
166	0xbcfd24cc	-0.030901335
167	0xbf51b8d9	-0.8192268
168	0xbed61cd5	-0.41818872
169	0xbf0c236e	-0.5474156
170	0xbf3a5026	-0.72778547
171	0xbebb5ad1	-0.36592725
172	0xbf081eb4	-0.5317185
173	0x3d4568a6	0.048195504
174	0xbe1e2363	-0.15443186
175	0x3e60305c	0.21893448
176	0xbe7d4b47	-0.24735747
177	0xbf22e586	-0.63631475
178	0x3e33fe31	0.17577435
179	0xbf26d673	-0.65170974
180	0x3f145c58	0.57953405
181	0x3ef85149	0.48499516
182	0xbef8b85a	-0.4857815
183	0xbeaff28e	-0.34364742
184	0x3e1623f3	0.14662151
185	0x3f150627	0.5821251
186	0x3ef17fae	0.47167724
187	0xbef75c6e	-0.48312706
188	0xbe3b217e	-0.18274495
189	0xbea3e35b	-0.32009396
190	0xbe8d2908	-0.27570367
191	0xbe5176a2	-0.20455411
192	0xbf258038	-0.6464877
193	0xbeab4b72	-0.33455998
194	0xbe05cb0f	-0.13065742
195	0xbf2bbf44	-0.67088723
196	0xbeee4206	-0.46534747
197	0xbdfd7200	-0.123752594
198	0x3ea808d7	0.32819244
199	0xbe363b26	-0.17796001
200	0xbe013f56	-0.12621817
201	0xbe73af06	-0.23797235
202	0xbe871ba8	-0.26388288
203	0xbb99bd49	-0.004691754
204	0xbe37141e	-0.17878768
205	0x3e52c3bb	0.20582478
206	0xbd7869e5	-0.060647864
207	0x3d4fb640	0.050710917
208	0xbed8975f	-0.42302987
209	0xbef9a976	-0.487621
210	0xbdb2fe19	-0.087398715
211	0xbe610df6	-0.21977982
212	0x3df493e2	0.11942269
213	0xbe9290eb	-0.2862619
214	0x3dde9a7c	0.10869309
215	0xbe73db6e	-0.23814175
216	0xbeb5ffd5	-0.35546747
217	0xbf2cb99f	-0.67470735
218	0xbdef2bb1	-0.11678255
219	0xbe9c1078	-0.30481315
220	0xbe962d72	-0.29331547
221	0xbf02763b	-0.50961655
222	0xbbc9a37c	-0.006153522
223	0xbd67ef3c	-0.056624636
224	0xbeba0325	-0.36330524
225	0xbee83d1e	-0.4535913
226	0xbe8cdfd5	-0.2751452
227	0xbe667d50	-0.2250874
228	0xbf13b092	-0.576913
229	0xbd194ed7	-0.037428703
230	0xbee7ba5b	-0.45259365
231	0xbf256862	-0.646124
232	0x3dd18b78	0.1023168
233	0x3ca389ab	0.019963106
234	0x3eb627ed	0.35577336
235	0x3f1ba608	0.6080022
236	0xbeecb567	-0.4623215
237	0xbda4e8c5	-0.0805221
238	0xbe48092c	-0.19534749
239	0x3e97fb68	0.29683995
240	0x3e471df3	0.19445018
241	0xbdb01659	-0.085980125
242	0xbeeb4718	-0.45952678
243	0x3c3b1839	0.011419349
244	0x3e834369	0.25637367
245	0xbf018cb7	-0.5060534
246	0xbeaba2dd	-0.33522692
247	0x3e1b29dd	0.15152688
248	0xbeff075f	-0.4981031
249	0xbd478bc9	-0.048717294
250	0x3ed65eca	0.41869193
251	0x3f0015ba	0.5003315
252	0xbcd86f7c	-0.026420347
253	0xbf364e63	-0.7121336
254	0xbddd51ce	-0.10806619
255	0x3e4d3874	0.20041066

a2c_network.physical_mlp.2.weight f4 [128, 256]
0	0xbdad8ede	-0.084745154
1	0xbd02be5c	-0.031919822
2	0xbd923fc1	-0.07141066
3	0xbc621336	-0.013798526
4	0xb9ec98d5	-0.00045127296
5	0xba29f30e	-0.00064830563
6	0xba287c8c	-0.00064272503
7	0xbdba0e6c	-0.09084782
8	0xbd0afc44	-0.033931985
9	0x3ce113e9	0.027475314
10	0xbd3997a0	-0.045310616
11	0xbcb40996	-0.021977227
12	0xbd741e3e	-0.059599154
13	0x3d72b934	0.059258655
14	0xbd81ce4a	-0.06338175
15	0xbd9d0646	-0.07667212
16	0x3c94aab0	0.018147796
17	0xbd82d4de	-0.063882574
18	0x3c1b72a0	0.009487778
19	0xbd96a39b	-0.07355424
20	0xbce5d511	-0.0280557
21	0xbd7ef286	-0.062243007
22	0x3d35acb4	0.044354156
23	0x3d0d3490	0.034473956
24	0xbc627250	-0.0138212
25	0x39d7940d	0.00041118302
26	0xbcbd7b59	-0.023130106
27	0xbd7e9e55	-0.062162716
28	0xbd5f13a2	-0.054462083
29	0xbba82c11	-0.0051322062
30	0xbc618b13	-0.013766068
31	0x3cb91835	0.02259455
32	0x3bd2f07e	0.0064373603
33	0xbce5a0d0	-0.028030783
34	0xbd8e98f6	-0.06962769
35	0xbbd93d13	-0.006629595
36	0xbdb5c38b	-0.088751875
37	0x3c3d7039	0.0115624005
38	0x3c9a310c	0.018822215
39	0x3c2f2e07	0.010692126
40	0x3c38b6a0	0.01127401
41	0xbc70451f	-0.014664917
42	0xbd46fb39	-0.04857943
43	0xbd95f6f2	-0.07322492
44	0xbd726578	-0.0591788
45	0x3c13bcdc	0.009017196
46	0xbbe420f1	-0.0069619347
47	0xbd403d48	-0.046933442
48	0x3c7ce774	0.015436042
49	0xbd0c0be6	-0.034191035
50	0x3ca14d37	0.01969014
51	0xbcec85ee	-0.028872456
52	0x3d3faffb	0.046798687
53	0x3cbf5afe	0.023358818
54	0x3d0da4fd	0.034581173
55	0x3c82a82d	0.015949333
56	0x39291418	0.00016124581
57	0xbbb13842	-0.005408318
58	0xbdb47cd2	-0.0881287
59	0xbc773052	-0.015087204
60	0xbd3902f0	-0.045168817
61	0x3cf3bb43	0.02975238
62	0xbd587a5f	-0.052851077
63	0xbb4d3665	-0.003131294
64	0x3d47f7d6	0.04882034
65	0x3ccccdb3	0.025000429
66	0x3916b98f	0.0001437424
67	0xbd1a3917	-0.0376521
68	0xbab1805e	-0.0013542285
69	0xbcc609a1	-0.024174513
70	0x3c24f085	0.01006711
71	0xbd0a1566	-0.033711813
72	0xbd0da408	-0.03458026
73	0xbd6a3b07	-0.0571852
74	0x3d72e2db	0.059298377
75	0xbcf30b11	-0.029668363
76	0x3c986473	0.018602585
77	0xbd2927a1	-0.04129756
78	0xbd75b250	-0.059984505
79	0xbc25475e	-0.010087816
80	0xbda1b510	-0.07895863
81	0x3c2139ac	0.00984041
82	0xbd030a79	-0.03199241
83	0xbd42ee2a	-0.047590412
84	0x3b93cf19	0.004510772
85	0x3c78b4bb	0.015179808
86	0xbdac29ac	-0.08406386
87	0xbda22859	-0.07917852
88	0x3d040639	0.032232497
89	0xbd6bd731	-0.05757827
90	0xbbe76558	-0.0070616417
91	0xbcf42a69	-0.029805379
92	0x3beb41c8	0.0071794726
93	0xbd89e79d	-0.0673363
94	0xbcb8e16f	-0.022568433
95	0xbcd83303	-0.026391512
96	0xbd155c15	-0.03646477
97	0xbd67f031	-0.05662555
98	0x3bde8381	0.006790579
99	0x3c6c54d0	0.014424518
100	0xbc8dde86	-0.017318022
101	0xbce6aaef	-0.02815768
102	0x3c9abefe	0.0188899
103	0x3d50e534	0.050999835
104	0xbd2ab82a	-0.04167954
105	0xbd79ad37	-0.060956206
106	0xbc8cc479	-0.01718353
107	0xbc557e43	-0.013030591
108	0xbd4fbede	-0.050719135
109	0xbd64e74a	-0.055884637
110	0xbccca7a3	-0.02498228
111	0x3d742ee1	0.05961502
112	0xbdb22e49	-0.087002344
113	0xbd6ba5ca	-0.057531156
114	0xbd25c92b	-0.04047505
115	0xbd660d35	-0.05616494
116	0xbd9fab41	-0.07796336
117	0x3c8d5b3c	0.017255418
118	0x3d32a1d0	0.043611348
119	0xbd8dd576	-0.0692548
120	0xbcfbe1f6	-0.030747395
121	0xbd098899	-0.033577535
122	0x3a5edd6f	0.0008501624
123	0xbd7642bc	-0.060122237
124	0xbd4ddb8d	-0.050258208
125	0xbd5cf813	-0.05394752
126	0xbc8a35e4	-0.0168714
127	0x3d215a86	0.03939297
128	0xbce1239e	-0.027482804
129	0xbbe3ea94	-0.006955454
130	0x3c8b499e	0.017002877
131	0xbcd12769	-0.025531488
132	0x3a259c1c	0.00063175126
133	0xbc8b64b6	-0.017015796
134	0xbc7b5002	-0.0153389
135	0x3c84e3fb	0.01622199
136	0x3b61eb30	0.0034472458
137	0xbd69d0ff	-0.05708408
138	0x3d769200	0.06019783
139	0x3c10293e	0.008798895
140	0xbd195bf6	-0.037441216
141	0x3d4630e1	0.04838646
142	0xbce8ba2e	-0.02840909
143	0x3c1da89d	0.00962272
144	0xbda2b73d	-0.07945106
145	0x3d3f1803	0.04665376
146	0x3cf531af	0.029930918
147	0xbda40993	-0.08009639
148	0xbd97ed3e	-0.07418297
149	0xbd0532a4	-0.032518998
150	0xbd1dee99	-0.038557623
151	0xbc18e97a	-0.009333009
152	0x3b323dbc	0.002719744
153	0xbd05b485	-0.03264286
154	0x3ca5a3ba	0.020219672
155	0xbcef54fa	-0.029215325
156	0xbd3fcc46	-0.04682567
157	0xbd66bbec	-0.05633156
158	0x3cab04c1	0.02087629
159	0xbda5e28b	-0.0809985
160	0x3958e09d	0.0002068304
161	0x3b5d9bc6	0.0033814772
162	0xbd674ee1	-0.05647171
163	0xbc61f694	-0.013791699
164	0x3baa7a1d	0.0052025453
165	0x3d0c3c5c	0.03423725
166	0x3ca4ec93	0.020132339
167	0xbd07fa52	-0.03319771
168	0xbd6ec99f	-0.05829775
169	0xbd4c4893	-0.0498739
170	0xbd4b38e4	-0.049614802
171	0x3c86fa9b	0.01647692
172	0xbd8957ef	-0.06706225
173	0xbd88cf5d	-0.066801764
174	0xbc063e84	-0.008193616
175	0x3d1c7fd7	0.038207855
176	0xbd40853a	-0.047002055
177	0xbd80b9c4	-0.06285432
178	0x3c0c8261	0.008576007
179	0x3bb0ca94	0.005395243
180	0x3ca338a4	0.01992447
181	0xbcc25dea	-0.023726422
182	0x3cc5e6c9	0.024157899
183	0xbdaede3c	-0.085384816
184	0x3d7365de	0.05942332
185	0xbd8da5a6	-0.069163606
186	0xbd93c2e5	-0.072149076
187	0x3c74c7a5	0.014940177
188	0xbd0d8991	-0.03455502
189	0x3ba7df95	0.0051230886
190	0xbd5821ad	-0.05276649
191	0x3d35c203	0.044374477
192	0x3ced8576	0.028994303
193	0x3c86ed8f	0.016470699
194	0x3cae1bdc	0.021253519
195	0xbd8c4466	-0.068489835
196	0xbcd1d36f	-0.025613515
197	0xbc5c703e	-0.013454495
198	0x3c7d0af8	0.01544451
199	0xbd913a27	-0.0709117
200	0x3d1c1f46	0.038115762
201	0xbc9e426a	-0.019318778
202	0xbd7bef96	-0.061507784
203	0xbc93b034	-0.018028356
204	0xbd9bf649	-0.076153345
205	0xbd973c8c	-0.07384595
206	0xbc930172	-0.017945025
207	0xbc893e67	-0.016753389
208	0x3c5d6fb0	0.013515398
209	0xbd25989c	-0.040428743
210	0xbd96d5a5	-0.07364968
211	0xbda6fc8d	-0.08153639
212	0x3cfdda76	0.03098796
213	0xbd8ae66f	-0.06782233
214	0xbca17feb	-0.019714316
215	0x3c954ff4	0.018226601
216	0x3cbd16e5	0.023082206
217	0xbd90aa0e	-0.07063685
218	0xbcdc3c91	-0.026884349
219	0xbda2f117	-0.079561405
220	0x3cee30a2	0.029075924
221	0xbdaec27b	-0.08533188
222	0xbd70a006	-0.05874636
223	0xbd300414	-0.04297264
224	0x3d2a9ba8	0.04165235
225	0x3d4d4394	0.050113276
226	0x3d0bb11f	0.034104463
227	0x3d23c867	0.03998604
228	0xbd398f52	-0.045302697
229	0xbd81dd83	-0.06341078
230	0xbd2824c1	-0.041050676
231	0x3cbf0d50	0.023321778
232	0xbbf181d7	-0.0073702144
233	0xbc594d55	-0.013263066
234	0xbd4c2a32	-0.049844928
235	0xbcb2f936	-0.021847349
236	0xbd862285	-0.06549553
237	0xbd193734	-0.03740616
238	0xbd187145	-0.037217397
239	0xbcb7c80b	-0.022434255
240	0xbd72de55	-0.059294064
241	0x3cd0dad6	0.025494974
242	0xbd01f1da	-0.03172479
243	0xbb3c2b22	-0.0028712233
244	0x3ca3c4e2	0.019991342
245	0x3c14d1d4	0.00908323
246	0x3d2b311d	0.041794885
247	0x3c17e806	0.009271627
248	0x3d3e8019	0.046508882
249	0xbc40de7d	-0.011771795
250	0x3c7295b4	0.0148062
251	0xbcc2fc4b	-0.023801943
252	0xbd258259	-0.040407512
253	0x3c134197	0.008987806
254	0x3c020514	0.007935781
255	0xbcff2dda	-0.031149793

a2c_network.physical_mlp.2.bias f4 [128]
0	0xb9f4a122	-0.0004665936
1	0xbdaefe79	-0.085446306
2	0xbc398205	-0.011322503
3	0xbd1d2b3e	-0.038371317
4	0xbc812f5e	-0.015769657
5	0xbc686142	-0.014183344
6	0xbd722f77	-0.059127297
7	0x3dce82de	0.10083555
8	0x3e553355	0.20820363
9	0x3e5e0921	0.2168317
10	0xbbb15fe7	-0.005413044
11	0x3e98964b	0.29802164
12	0xbc50a293	-0.012734073
13	0x3cb96acf	0.022633938
14	0x3ea101cd	0.31446686
15	0xbda32e09	-0.07967765
16	0x3e056892	0.13028172
17	0xbe3d95c5	-0.18514164
18	0x3eb54cb9	0.35410097
19	0x3cff582d	0.031169975
20	0xbd4be1aa	-0.049775757
21	0xbc882754	-0.016620316
22	0x3ddaa1e7	0.10675412
23	0x3c963093	0.018333709
24	0xbcf7778b	-0.03020837
25	0xbd14ab3a	-0.036296107
26	0x3d3d8b3e	0.04627537
27	0xbcbd7906	-0.023128998
28	0xbdcaa8db	-0.09895488
29	0x3d153eb6	0.03643676
30	0x3bb3dd82	0.0054890523
31	0x3e02b7d1	0.12765433
32	0x3ec9be60	0.39403057
33	0xbe191eae	-0.1495311
34	0xbcfba78f	-0.030719547
35	0xbd5a6a2d	-0.053323913
36	0xbdfb2a5d	-0.122639395
37	0xbe6c9942	-0.23105338
38	0xbdb7cfda	-0.089751914
39	0x3ce65591	0.028116973
40	0xbcbd338c	-0.023095869
41	0xbd2cc3d3	-0.04217894
42	0xbdde0db0	-0.108424544
43	0x3c5bd402	0.013417246
44	0x3e62d9c6	0.22153386
45	0xbd9ca110	-0.07647908
46	0x3d499849	0.049217496
47	0xbd583203	-0.05278207
48	0xbdcb1613	-0.0991632
49	0x3e38a9ca	0.1803352
50	0xbe8534a4	-0.26016724
51	0xbb8c5d38	-0.0042835735
52	0xbbdc6f4e	-0.0067271357
53	0x3692331f	4.3570903e-06
54	0xba53419b	-0.0008058787
55	0x3c9c3435	0.019067863
56	0x3de51139	0.111849256
57	0xbe3826b8	-0.1798352
58	0xbeb5367f	-0.3539314
59	0x3b205c92	0.0024469239
60	0xbea86575	-0.32889906
61	0x3d9e3086	0.07724099
62	0x3c718ed8	0.014743529
63	0x3e75eff2	0.24017313
64	0x3d14e142	0.036347635
65	0xbd75a1af	-0.059968647
66	0xbd7cc352	-0.06170971
67	0x3cdb8603	0.0267973
68	0xbdbd2d24	-0.092371255
69	0x3f1e8c12	0.6193248
70	0x3e40ffbb	0.18847553
71	0x3da8d556	0.082438156
72	0xbd1dbf15	-0.03851231
73	0xbd2e6a3e	-0.04258179
74	0xbe0e7c7f	-0.13914679
75	0x3e8d9e47	0.2765982
76	0x3e189872	0.14901903
77	0x3e9de48a	0.30838424
78	0x3d044a94	0.032297686
79	0xbda6d06b	-0.08145221
80	0x3e9e7f77	0.30956623
81	0xbdc33dc6	-0.09533267
82	0xbd833f99	-0.06408615
83	0xbd8dc6b0	-0.06922662
84	0x3d1697a0	0.036765695
85	0x3d7ddcc5	0.06197812
86	0x3ec213b7	0.37905666
87	0x3dc5b307	0.096532874
88	0xbe07bee4	-0.13256413
89	0xbcc67846	-0.024227273
90	0x3e07b8b4	0.13254052
91	0xbe9b14e6	-0.30289382
92	0x3e3039a4	0.17209488
93	0x3d3b6581	0.0457511
94	0xbd677a14	-0.056512907
95	0xbba62030	-0.005069755
96	0xbd95d871	-0.073166735
97	0xbd89472b	-0.06703027
98	0xbe1d4a8b	-0.15360467
99	0x3dc6c064	0.09704664
100	0x3e92136a	0.28530437
101	0x3db05f6f	0.086119525
102	0x3ea3be64	0.31981194
103	0xbda26be2	-0.07930733
104	0xbdc32eec	-0.09530434
105	0xbe0a698f	-0.1351683
106	0x3d760ed7	0.060072746
107	0x3e9b11b0	0.30286932
108	0xbe50d49b	-0.20393603
109	0x3d846988	0.06465441
110	0x3edf14e0	0.43570614
111	0x3d9a18b4	0.07524243
112	0xbc5d499a	-0.0135063175
113	0x3d1b57a8	0.037925392
114	0x3ef647a0	0.4810152
115	0x3dd97ace	0.10619126
116	0x3d4e7a81	0.050409798
117	0xbc964897	-0.01834516
118	0x3e14f513	0.14546613
119	0xbdb08cd3	-0.0862061
120	0xbcf482e4	-0.02984757
121	0x3e0001d8	0.12500703
122	0xbed1a886	-0.40948886
123	0x3d9eba7d	0.077504136
124	0x3dc14fba	0.09439035
125	0xbc9d0312	-0.019166503
126	0xbda475a1	-0.080302484
127	0xbbb4afcd	-0.005514121
