pre_model/min-pool-last_Quadcopter_ep_5750_rew_326.80685.pth (torch, 898671 bytes, 54 tensors)

value_mean_std.running_mean f8 [1]
000000 a6 37 37 6a b8 28 1e 40
       7.539765987034036

value_mean_std.running_var f8 [1]
000000 7f ec 3a 9f 08 1d 1a 40
       6.528353202792572

value_mean_std.count f8 []
000000 00 00 00 08 00 76 86 41
       47104001.0

running_mean_std.running_mean f8 [19213]
000000 73 50 c5 93 42 00 f8 3f 1b 20 f2 a4 66 01 e0 3f
       1.500063492993857 0.5001710149381354
000010 b8 00 5d ea 91 b3 ce 3f ef 60 fc 37 cb 71 69 bf
       0.23985504096527221 -0.0031060189356929484
000020 46 31 67 23 ff 54 41 3f fb 97 eb b0 3f 46 7d bf
       0.0005289312164733849 -0.007147072594966271
000030 16 6c d4 b8 8c d0 ef 3f cc c9 7f 3d 4e 88 d8 3f
       0.9942077264744309 0.383319435174738
000040 90 ea 22 79 42 bd cb 3f 43 c2 3d 71 ad 7c 92 3f
       0.21671324648726342 0.018053731953332052
000050 dd 39 45 86 b1 41 83 bf 18 97 d6 ec e9 5d a4 bf
       -0.009402644071681837 -0.039779005204122864
000060 d1 36 3f 58 67 92 8b bf 02 c6 4f 73 e3 ff 13 40
       -0.013462836628515802 4.999891092056261
000070 02 c6 4f 73 e3 ff 13 40 02 c6 4f 73 e3 ff 13 40
       4.999891092056261 4.999891092056261
000080 02 c6 4f 73 e3 ff 13 40 02 c6 4f 73 e3 ff 13 40
       4.999891092056261 4.999891092056261
000090 02 c6 4f 73 e3 ff 13 40 02 c6 4f 73 e3 ff 13 40
       4.999891092056261 4.999891092056261
0000a0 02 c6 4f 73 e3 ff 13 40 02 c6 4f 73 e3 ff 13 40
       4.999891092056261 4.999891092056261
0000b0 02 c6 4f 73 e3 ff 13 40 02 c6 4f 73 e3 ff 13 40
       4.999891092056261 4.999891092056261
0000c0 02 c6 4f 73 e3 ff 13 40 02 c6 4f 73 e3 ff 13 40
       4.999891092056261 4.999891092056261
0000d0 02 c6 4f 73 e3 ff 13 40 02 c6 4f 73 e3 ff 13 40
       4.999891092056261 4.999891092056261
0000e0 02 c6 4f 73 e3 ff 13 40 02 c6 4f 73 e3 ff 13 40
       4.999891092056261 4.999891092056261
0000f0 02 c6 4f 73 e3 ff 13 40 02 c6 4f 73 e3 ff 13 40
       4.999891092056261 4.999891092056261
000100 02 c6 4f 73 e3 ff 13 40 02 c6 4f 73 e3 ff 13 40
       4.999891092056261 4.999891092056261
000110 02 c6 4f 73 e3 ff 13 40 02 c6 4f 73 e3 ff 13 40
       4.999891092056261 4.999891092056261
000120 02 c6 4f 73 e3 ff 13 40 02 c6 4f 73 e3 ff 13 40
       4.999891092056261 4.999891092056261
000130 02 c6 4f 73 e3 ff 13 40 02 c6 4f 73 e3 ff 13 40
       4.999891092056261 4.999891092056261
000140 02 c6 4f 73 e3 ff 13 40 02 c6 4f 73 e3 ff 13 40
       4.999891092056261 4.999891092056261
000150 02 c6 4f 73 e3 ff 13 40 02 c6 4f 73 e3 ff 13 40
       4.999891092056261 4.999891092056261
000160 02 c6 4f 73 e3 ff 13 40 02 c6 4f 73 e3 ff 13 40
       4.999891092056261 4.999891092056261
000170 02 c6 4f 73 e3 ff 13 40 02 c6 4f 73 e3 ff 13 40
       4.999891092056261 4.999891092056261
000180 02 c6 4f 73 e3 ff 13 40 02 c6 4f 73 e3 ff 13 40
       4.999891092056261 4.999891092056261
000190 02 c6 4f 73 e3 ff 13 40 02 c6 4f 73 e3 ff 13 40
       4.999891092056261 4.999891092056261
0001a0 02 c6 4f 73 e3 ff 13 40 02 c6 4f 73 e3 ff 13 40
       4.999891092056261 4.999891092056261
0001b0 02 c6 4f 73 e3 ff 13 40 02 c6 4f 73 e3 ff 13 40
       4.999891092056261 4.999891092056261
0001c0 02 c6 4f 73 e3 ff 13 40 02 c6 4f 73 e3 ff 13 40
       4.999891092056261 4.999891092056261
0001d0 02 c6 4f 73 e3 ff 13 40 02 c6 4f 73 e3 ff 13 40
       4.999891092056261 4.999891092056261
0001e0 02 c6 4f 73 e3 ff 13 40 02 c6 4f 73 e3 ff 13 40
       4.999891092056261 4.999891092056261
0001f0 02 c6 4f 73 e3 ff 13 40 02 c6 4f 73 e3 ff 13 40
       4.999891092056261 4.999891092056261
000200 02 c6 4f 73 e3 ff 13 40 02 c6 4f 73 e3 ff 13 40
       4.999891092056261 4.999891092056261
000210 02 c6 4f 73 e3 ff 13 40 02 c6 4f 73 e3 ff 13 40
       4.999891092056261 4.999891092056261
000220 02 c6 4f 73 e3 ff 13 40 02 c6 4f 73 e3 ff 13 40
       4.999891092056261 4.999891092056261
000230 02 c6 4f 73 e3 ff 13 40 02 c6 4f 73 e3 ff 13 40
       4.999891092056261 4.999891092056261
000240 02 c6 4f 73 e3 ff 13 40 02 c6 4f 73 e3 ff 13 40
       4.999891092056261 4.999891092056261
000250 02 c6 4f 73 e3 ff 13 40 02 c6 4f 73 e3 ff 13 40
       4.999891092056261 4.999891092056261
000260 02 c6 4f 73 e3 ff 13 40 02 c6 4f 73 e3 ff 13 40
       4.999891092056261 4.999891092056261
000270 02 c6 4f 73 e3 ff 13 40 02 c6 4f 73 e3 ff 13 40
       4.999891092056261 4.999891092056261
000280 02 c6 4f 73 e3 ff 13 40 02 c6 4f 73 e3 ff 13 40
       4.999891092056261 4.999891092056261
000290 02 c6 4f 73 e3 ff 13 40 02 c6 4f 73 e3 ff 13 40
       4.999891092056261 4.999891092056261
0002a0 02 c6 4f 73 e3 ff 13 40 02 c6 4f 73 e3 ff 13 40
       4.999891092056261 4.999891092056261
0002b0 02 c6 4f 73 e3 ff 13 40 02 c6 4f 73 e3 ff 13 40
       4.999891092056261 4.999891092056261
0002c0 02 c6 4f 73 e3 ff 13 40 02 c6 4f 73 e3 ff 13 40
       4.999891092056261 4.999891092056261
0002d0 02 c6 4f 73 e3 ff 13 40 02 c6 4f 73 e3 ff 13 40
       4.999891092056261 4.999891092056261
0002e0 02 c6 4f 73 e3 ff 13 40 02 c6 4f 73 e3 ff 13 40
       4.999891092056261 4.999891092056261
0002f0 02 c6 4f 73 e3 ff 13 40 02 c6 4f 73 e3 ff 13 40
       4.999891092056261 4.999891092056261
000300 02 c6 4f 73 e3 ff 13 40 02 c6 4f 73 e3 ff 13 40
       4.999891092056261 4.999891092056261
000310 02 c6 4f 73 e3 ff 13 40 02 c6 4f 73 e3 ff 13 40
       4.999891092056261 4.999891092056261
000320 02 c6 4f 73 e3 ff 13 40 02 c6 4f 73 e3 ff 13 40
       4.999891092056261 4.999891092056261
000330 02 c6 4f 73 e3 ff 13 40 02 c6 4f 73 e3 ff 13 40
       4.999891092056261 4.999891092056261
000340 02 c6 4f 73 e3 ff 13 40 02 c6 4f 73 e3 ff 13 40
       4.999891092056261 4.999891092056261
000350 02 c6 4f 73 e3 ff 13 40 02 c6 4f 73 e3 ff 13 40
       4.999891092056261 4.999891092056261
000360 02 c6 4f 73 e3 ff 13 40 02 c6 4f 73 e3 ff 13 40
       4.999891092056261 4.999891092056261
000370 02 c6 4f 73 e3 ff 13 40 02 c6 4f 73 e3 ff 13 40
       4.999891092056261 4.999891092056261
000380 02 c6 4f 73 e3 ff 13 40 02 c6 4f 73 e3 ff 13 40
       4.999891092056261 4.999891092056261
000390 02 c6 4f 73 e3 ff 13 40 02 c6 4f 73 e3 ff 13 40
       4.999891092056261 4.999891092056261
0003a0 02 c6 4f 73 e3 ff 13 40 02 c6 4f 73 e3 ff 13 40
       4.999891092056261 4.999891092056261
0003b0 02 c6 4f 73 e3 ff 13 40 02 c6 4f 73 e3 ff 13 40
       4.999891092056261 4.999891092056261
0003c0 02 c6 4f 73 e3 ff 13 40 02 c6 4f 73 e3 ff 13 40
       4.999891092056261 4.999891092056261
0003d0 02 c6 4f 73 e3 ff 13 40 02 c6 4f 73 e3 ff 13 40
       4.999891092056261 4.999891092056261
0003e0 02 c6 4f 73 e3 ff 13 40 02 c6 4f 73 e3 ff 13 40
       4.999891092056261 4.999891092056261
0003f0 02 c6 4f 73 e3 ff 13 40 02 c6 4f 73 e3 ff 13 40
       4.999891092056261 4.999891092056261
000400 02 c6 4f 73 e3 ff 13 40 02 c6 4f 73 e3 ff 13 40
       4.999891092056261 4.999891092056261
000410 02 c6 4f 73 e3 ff 13 40 02 c6 4f 73 e3 ff 13 40
       4.999891092056261 4.999891092056261
000420 02 c6 4f 73 e3 ff 13 40 02 c6 4f 73 e3 ff 13 40
       4.999891092056261 4.999891092056261
000430 02 c6 4f 73 e3 ff 13 40 02 c6 4f 73 e3 ff 13 40
       4.999891092056261 4.999891092056261
000440 02 c6 4f 73 e3 ff 13 40 02 c6 4f 73 e3 ff 13 40
       4.999891092056261 4.999891092056261
000450 02 c6 4f 73 e3 ff 13 40 02 c6 4f 73 e3 ff 13 40
       4.999891092056261 4.999891092056261
000460 02 c6 4f 73 e3 ff 13 40 02 c6 4f 73 e3 ff 13 40
       4.999891092056261 4.999891092056261
000470 02 c6 4f 73 e3 ff 13 40 02 c6 4f 73 e3 ff 13 40
       4.999891092056261 4.999891092056261
000480 02 c6 4f 73 e3 ff 13 40 02 c6 4f 73 e3 ff 13 40
       4.999891092056261 4.999891092056261
000490 02 c6 4f 73 e3 ff 13 40 02 c6 4f 73 e3 ff 13 40
       4.999891092056261 4.999891092056261
0004a0 02 c6 4f 73 e3 ff 13 40 02 c6 4f 73 e3 ff 13 40
       4.999891092056261 4.999891092056261
0004b0 02 c6 4f 73 e3 ff 13 40 02 c6 4f 73 e3 ff 13 40
       4.999891092056261 4.999891092056261
0004c0 02 c6 4f 73 e3 ff 13 40 02 c6 4f 73 e3 ff 13 40
       4.999891092056261 4.999891092056261
0004d0 02 c6 4f 73 e3 ff 13 40 02 c6 4f 73 e3 ff 13 40
       4.999891092056261 4.999891092056261
0004e0 02 c6 4f 73 e3 ff 13 40 02 c6 4f 73 e3 ff 13 40
       4.999891092056261 4.999891092056261
0004f0 02 c6 4f 73 e3 ff 13 40 02 c6 4f 73 e3 ff 13 40
       4.999891092056261 4.999891092056261
000500 02 c6 4f 73 e3 ff 13 40 02 c6 4f 73 e3 ff 13 40
       4.999891092056261 4.999891092056261
000510 02 c6 4f 73 e3 ff 13 40 02 c6 4f 73 e3 ff 13 40
       4.999891092056261 4.999891092056261
000520 02 c6 4f 73 e3 ff 13 40 02 c6 4f 73 e3 ff 13 40
       4.999891092056261 4.999891092056261
000530 02 c6 4f 73 e3 ff 13 40 02 c6 4f 73 e3 ff 13 40
       4.999891092056261 4.999891092056261
000540 02 c6 4f 73 e3 ff 13 40 02 c6 4f 73 e3 ff 13 40
       4.999891092056261 4.999891092056261
000550 02 c6 4f 73 e3 ff 13 40 02 c6 4f 73 e3 ff 13 40
       4.999891092056261 4.999891092056261
000560 02 c6 4f 73 e3 ff 13 40 02 c6 4f 73 e3 ff 13 40
       4.999891092056261 4.999891092056261
000570 02 c6 4f 73 e3 ff 13 40 02 c6 4f 73 e3 ff 13 40
       4.999891092056261 4.999891092056261
000580 02 c6 4f 73 e3 ff 13 40 02 c6 4f 73 e3 ff 13 40
       4.999891092056261 4.999891092056261
000590 02 c6 4f 73 e3 ff 13 40 02 c6 4f 73 e3 ff 13 40
       4.999891092056261 4.999891092056261
0005a0 02 c6 4f 73 e3 ff 13 40 02 c6 4f 73 e3 ff 13 40
       4.999891092056261 4.999891092056261
0005b0 02 c6 4f 73 e3 ff 13 40 02 c6 4f 73 e3 ff 13 40
       4.999891092056261 4.999891092056261
0005c0 02 c6 4f 73 e3 ff 13 40 02 c6 4f 73 e3 ff 13 40
       4.999891092056261 4.999891092056261
0005d0 02 c6 4f 73 e3 ff 13 40 02 c6 4f 73 e3 ff 13 40
       4.999891092056261 4.999891092056261
0005e0 02 c6 4f 73 e3 ff 13 40 02 c6 4f 73 e3 ff 13 40
       4.999891092056261 4.999891092056261
0005f0 02 c6 4f 73 e3 ff 13 40 02 c6 4f 73 e3 ff 13 40
       4.999891092056261 4.999891092056261
000600 02 c6 4f 73 e3 ff 13 40 02 c6 4f 73 e3 ff 13 40
       4.999891092056261 4.999891092056261
000610 02 c6 4f 73 e3 ff 13 40 02 c6 4f 73 e3 ff 13 40
       4.999891092056261 4.999891092056261
000620 02 c6 4f 73 e3 ff 13 40 02 c6 4f 73 e3 ff 13 40
       4.999891092056261 4.999891092056261
000630 02 c6 4f 73 e3 ff 13 40 02 c6 4f 73 e3 ff 13 40
       4.999891092056261 4.999891092056261
000640 02 c6 4f 73 e3 ff 13 40 02 c6 4f 73 e3 ff 13 40
       4.999891092056261 4.999891092056261
000650 02 c6 4f 73 e3 ff 13 40 02 c6 4f 73 e3 ff 13 40
       4.999891092056261 4.999891092056261
000660 02 c6 4f 73 e3 ff 13 40 02 c6 4f 73 e3 ff 13 40
       4.999891092056261 4.999891092056261
000670 02 c6 4f 73 e3 ff 13 40 02 c6 4f 73 e3 ff 13 40
       4.999891092056261 4.999891092056261
000680 02 c6 4f 73 e3 ff 13 40 02 c6 4f 73 e3 ff 13 40
       4.999891092056261 4.999891092056261
000690 02 c6 4f 73 e3 ff 13 40 02 c6 4f 73 e3 ff 13 40
       4.999891092056261 4.999891092056261
0006a0 02 c6 4f 73 e3 ff 13 40 02 c6 4f 73 e3 ff 13 40
       4.999891092056261 4.999891092056261
0006b0 02 c6 4f 73 e3 ff 13 40 02 c6 4f 73 e3 ff 13 40
       4.999891092056261 4.999891092056261
0006c0 02 c6 4f 73 e3 ff 13 40 02 c6 4f 73 e3 ff 13 40
       4.999891092056261 4.999891092056261
0006d0 02 c6 4f 73 e3 ff 13 40 02 c6 4f 73 e3 ff 13 40
       4.999891092056261 4.999891092056261
0006e0 02 c6 4f 73 e3 ff 13 40 02 c6 4f 73 e3 ff 13 40
       4.999891092056261 4.999891092056261
0006f0 02 c6 4f 73 e3 ff 13 40 02 c6 4f 73 e3 ff 13 40
       4.999891092056261 4.999891092056261
000700 02 c6 4f 73 e3 ff 13 40 02 c6 4f 73 e3 ff 13 40
       4.999891092056261 4.999891092056261
000710 02 c6 4f 73 e3 ff 13 40 02 c6 4f 73 e3 ff 13 40
       4.999891092056261 4.999891092056261
000720 02 c6 4f 73 e3 ff 13 40 02 c6 4f 73 e3 ff 13 40
       4.999891092056261 4.999891092056261
000730 02 c6 4f 73 e3 ff 13 40 02 c6 4f 73 e3 ff 13 40
       4.999891092056261 4.999891092056261
000740 02 c6 4f 73 e3 ff 13 40 02 c6 4f 73 e3 ff 13 40
       4.999891092056261 4.999891092056261
000750 02 c6 4f 73 e3 ff 13 40 02 c6 4f 73 e3 ff 13 40
       4.999891092056261 4.999891092056261
000760 02 c6 4f 73 e3 ff 13 40 02 c6 4f 73 e3 ff 13 40
       4.999891092056261 4.999891092056261
000770 02 c6 4f 73 e3 ff 13 40 02 c6 4f 73 e3 ff 13 40
       4.999891092056261 4.999891092056261
000780 02 c6 4f 73 e3 ff 13 40 02 c6 4f 73 e3 ff 13 40
       4.999891092056261 4.999891092056261
000790 02 c6 4f 73 e3 ff 13 40 02 c6 4f 73 e3 ff 13 40
       4.999891092056261 4.999891092056261
0007a0 02 c6 4f 73 e3 ff 13 40 02 c6 4f 73 e3 ff 13 40
       4.999891092056261 4.999891092056261
0007b0 02 c6 4f 73 e3 ff 13 40 02 c6 4f 73 e3 ff 13 40
       4.999891092056261 4.999891092056261
0007c0 02 c6 4f 73 e3 ff 13 40 02 c6 4f 73 e3 ff 13 40
       4.999891092056261 4.999891092056261
0007d0 02 c6 4f 73 e3 ff 13 40 02 c6 4f 73 e3 ff 13 40
       4.999891092056261 4.999891092056261
0007e0 02 c6 4f 73 e3 ff 13 40 02 c6 4f 73 e3 ff 13 40
       4.999891092056261 4.999891092056261
0007f0 02 c6 4f 73 e3 ff 13 40 02 c6 4f 73 e3 ff 13 40
       4.999891092056261 4.999891092056261

running_mean_std.running_var f8 [19213]
000000 17 7b a1 25 7c 58 04 40 b9 bf 17 28 dc 85 e6 3f
       2.5432055416016612 0.7038403304159068
000010 ea c2 87 3c 5e c8 be 3f 40 3c 4b 14 fc 15 66 3f
       0.12024487474242176 0.0026960299895573414
000020 7f c0 46 a6 65 cb 6d 3f a6 cd c3 b4 8c 8b 3b 3f
       0.0036370263425951617 0.00042030511100607027
000030 ac 39 ca 81 27 58 73 3f a3 94 64 61 2f 82 da 3f
       0.004722742389857631 0.41419586668991765
000040 d2 dc 9f ee 0e ed c6 3f ac 9f f5 35 bc 17 c2 3f
       0.17910944606385343 0.14134934077014571
000050 96 2b fa 1e 88 0c db 3f a3 eb 7d b9 f5 72 da 3f
       0.42263987565154915 0.41326659311715214
000060 63 d5 3b 26 fc 39 96 3f ee 24 0d 1e 16 dc 41 3f
       0.02170557006225716 0.0005450351710375703
000070 ee 24 0d 1e 16 dc 41 3f ee 24 0d 1e 16 dc 41 3f
       0.0005450351710375703 0.0005450351710375703
000080 ee 24 0d 1e 16 dc 41 3f ee 24 0d 1e 16 dc 41 3f
       0.0005450351710375703 0.0005450351710375703
000090 ee 24 0d 1e 16 dc 41 3f ee 24 0d 1e 16 dc 41 3f
       0.0005450351710375703 0.0005450351710375703
0000a0 ee 24 0d 1e 16 dc 41 3f ee 24 0d 1e 16 dc 41 3f
       0.0005450351710375703 0.0005450351710375703
0000b0 ee 24 0d 1e 16 dc 41 3f ee 24 0d 1e 16 dc 41 3f
       0.0005450351710375703 0.0005450351710375703
0000c0 ee 24 0d 1e 16 dc 41 3f ee 24 0d 1e 16 dc 41 3f
       0.0005450351710375703 0.0005450351710375703
0000d0 ee 24 0d 1e 16 dc 41 3f ee 24 0d 1e 16 dc 41 3f
       0.0005450351710375703 0.0005450351710375703
0000e0 ee 24 0d 1e 16 dc 41 3f ee 24 0d 1e 16 dc 41 3f
       0.0005450351710375703 0.0005450351710375703
0000f0 ee 24 0d 1e 16 dc 41 3f ee 24 0d 1e 16 dc 41 3f
       0.0005450351710375703 0.0005450351710375703
000100 ee 24 0d 1e 16 dc 41 3f ee 24 0d 1e 16 dc 41 3f
       0.0005450351710375703 0.0005450351710375703
000110 ee 24 0d 1e 16 dc 41 3f ee 24 0d 1e 16 dc 41 3f
       0.0005450351710375703 0.0005450351710375703
000120 ee 24 0d 1e 16 dc 41 3f ee 24 0d 1e 16 dc 41 3f
       0.0005450351710375703 0.0005450351710375703
000130 ee 24 0d 1e 16 dc 41 3f ee 24 0d 1e 16 dc 41 3f
       0.0005450351710375703 0.0005450351710375703
000140 ee 24 0d 1e 16 dc 41 3f ee 24 0d 1e 16 dc 41 3f
       0.0005450351710375703 0.0005450351710375703
000150 ee 24 0d 1e 16 dc 41 3f ee 24 0d 1e 16 dc 41 3f
       0.0005450351710375703 0.0005450351710375703
000160 ee 24 0d 1e 16 dc 41 3f ee 24 0d 1e 16 dc 41 3f
       0.0005450351710375703 0.0005450351710375703
000170 ee 24 0d 1e 16 dc 41 3f ee 24 0d 1e 16 dc 41 3f
       0.0005450351710375703 0.0005450351710375703
000180 ee 24 0d 1e 16 dc 41 3f ee 24 0d 1e 16 dc 41 3f
       0.0005450351710375703 0.0005450351710375703
000190 ee 24 0d 1e 16 dc 41 3f ee 24 0d 1e 16 dc 41 3f
       0.0005450351710375703 0.0005450351710375703
0001a0 ee 24 0d 1e 16 dc 41 3f ee 24 0d 1e 16 dc 41 3f
       0.0005450351710375703 0.0005450351710375703
0001b0 ee 24 0d 1e 16 dc 41 3f ee 24 0d 1e 16 dc 41 3f
       0.0005450351710375703 0.0005450351710375703
0001c0 ee 24 0d 1e 16 dc 41 3f ee 24 0d 1e 16 dc 41 3f
       0.0005450351710375703 0.0005450351710375703
0001d0 ee 24 0d 1e 16 dc 41 3f ee 24 0d 1e 16 dc 41 3f
       0.0005450351710375703 0.0005450351710375703
0001e0 ee 24 0d 1e 16 dc 41 3f ee 24 0d 1e 16 dc 41 3f
       0.0005450351710375703 0.0005450351710375703
0001f0 ee 24 0d 1e 16 dc 41 3f ee 24 0d 1e 16 dc 41 3f
       0.0005450351710375703 0.0005450351710375703
000200 ee 24 0d 1e 16 dc 41 3f ee 24 0d 1e 16 dc 41 3f
       0.0005450351710375703 0.0005450351710375703
000210 ee 24 0d 1e 16 dc 41 3f ee 24 0d 1e 16 dc 41 3f
       0.0005450351710375703 0.0005450351710375703
000220 ee 24 0d 1e 16 dc 41 3f ee 24 0d 1e 16 dc 41 3f
       0.0005450351710375703 0.0005450351710375703
000230 ee 24 0d 1e 16 dc 41 3f ee 24 0d 1e 16 dc 41 3f
       0.0005450351710375703 0.0005450351710375703
000240 ee 24 0d 1e 16 dc 41 3f ee 24 0d 1e 16 dc 41 3f
       0.0005450351710375703 0.0005450351710375703
000250 ee 24 0d 1e 16 dc 41 3f ee 24 0d 1e 16 dc 41 3f
       0.0005450351710375703 0.0005450351710375703
000260 ee 24 0d 1e 16 dc 41 3f ee 24 0d 1e 16 dc 41 3f
       0.0005450351710375703 0.0005450351710375703
000270 ee 24 0d 1e 16 dc 41 3f ee 24 0d 1e 16 dc 41 3f
       0.0005450351710375703 0.0005450351710375703
000280 ee 24 0d 1e 16 dc 41 3f ee 24 0d 1e 16 dc 41 3f
       0.0005450351710375703 0.0005450351710375703
000290 ee 24 0d 1e 16 dc 41 3f ee 24 0d 1e 16 dc 41 3f
       0.0005450351710375703 0.0005450351710375703
0002a0 ee 24 0d 1e 16 dc 41 3f ee 24 0d 1e 16 dc 41 3f
       0.0005450351710375703 0.0005450351710375703
0002b0 ee 24 0d 1e 16 dc 41 3f ee 24 0d 1e 16 dc 41 3f
       0.0005450351710375703 0.0005450351710375703
0002c0 ee 24 0d 1e 16 dc 41 3f ee 24 0d 1e 16 dc 41 3f
       0.0005450351710375703 0.0005450351710375703
0002d0 ee 24 0d 1e 16 dc 41 3f ee 24 0d 1e 16 dc 41 3f
       0.0005450351710375703 0.0005450351710375703
0002e0 ee 24 0d 1e 16 dc 41 3f ee 24 0d 1e 16 dc 41 3f
       0.0005450351710375703 0.0005450351710375703
0002f0 ee 24 0d 1e 16 dc 41 3f ee 24 0d 1e 16 dc 41 3f
       0.0005450351710375703 0.0005450351710375703
000300 ee 24 0d 1e 16 dc 41 3f ee 24 0d 1e 16 dc 41 3f
       0.0005450351710375703 0.0005450351710375703
000310 ee 24 0d 1e 16 dc 41 3f ee 24 0d 1e 16 dc 41 3f
       0.0005450351710375703 0.0005450351710375703
000320 ee 24 0d 1e 16 dc 41 3f ee 24 0d 1e 16 dc 41 3f
       0.0005450351710375703 0.0005450351710375703
000330 ee 24 0d 1e 16 dc 41 3f ee 24 0d 1e 16 dc 41 3f
       0.0005450351710375703 0.0005450351710375703
000340 ee 24 0d 1e 16 dc 41 3f ee 24 0d 1e 16 dc 41 3f
       0.0005450351710375703 0.0005450351710375703
000350 ee 24 0d 1e 16 dc 41 3f ee 24 0d 1e 16 dc 41 3f
       0.0005450351710375703 0.0005450351710375703
000360 ee 24 0d 1e 16 dc 41 3f ee 24 0d 1e 16 dc 41 3f
       0.0005450351710375703 0.0005450351710375703
000370 ee 24 0d 1e 16 dc 41 3f ee 24 0d 1e 16 dc 41 3f
       0.0005450351710375703 0.0005450351710375703
000380 ee 24 0d 1e 16 dc 41 3f ee 24 0d 1e 16 dc 41 3f
       0.0005450351710375703 0.0005450351710375703
000390 ee 24 0d 1e 16 dc 41 3f ee 24 0d 1e 16 dc 41 3f
       0.0005450351710375703 0.0005450351710375703
0003a0 ee 24 0d 1e 16 dc 41 3f ee 24 0d 1e 16 dc 41 3f
       0.0005450351710375703 0.0005450351710375703
0003b0 ee 24 0d 1e 16 dc 41 3f ee 24 0d 1e 16 dc 41 3f
       0.0005450351710375703 0.0005450351710375703
0003c0 ee 24 0d 1e 16 dc 41 3f ee 24 0d 1e 16 dc 41 3f
       0.0005450351710375703 0.0005450351710375703
0003d0 ee 24 0d 1e 16 dc 41 3f ee 24 0d 1e 16 dc 41 3f
       0.0005450351710375703 0.0005450351710375703
0003e0 ee 24 0d 1e 16 dc 41 3f ee 24 0d 1e 16 dc 41 3f
       0.0005450351710375703 0.0005450351710375703
0003f0 ee 24 0d 1e 16 dc 41 3f ee 24 0d 1e 16 dc 41 3f
       0.0005450351710375703 0.0005450351710375703
000400 ee 24 0d 1e 16 dc 41 3f ee 24 0d 1e 16 dc 41 3f
       0.0005450351710375703 0.0005450351710375703
000410 ee 24 0d 1e 16 dc 41 3f ee 24 0d 1e 16 dc 41 3f
       0.0005450351710375703 0.0005450351710375703
000420 ee 24 0d 1e 16 dc 41 3f ee 24 0d 1e 16 dc 41 3f
       0.0005450351710375703 0.0005450351710375703
000430 ee 24 0d 1e 16 dc 41 3f ee 24 0d 1e 16 dc 41 3f
       0.0005450351710375703 0.0005450351710375703
000440 ee 24 0d 1e 16 dc 41 3f ee 24 0d 1e 16 dc 41 3f
       0.0005450351710375703 0.0005450351710375703
000450 ee 24 0d 1e 16 dc 41 3f ee 24 0d 1e 16 dc 41 3f
       0.0005450351710375703 0.0005450351710375703
000460 ee 24 0d 1e 16 dc 41 3f ee 24 0d 1e 16 dc 41 3f
       0.0005450351710375703 0.0005450351710375703
000470 ee 24 0d 1e 16 dc 41 3f ee 24 0d 1e 16 dc 41 3f
       0.0005450351710375703 0.0005450351710375703
000480 ee 24 0d 1e 16 dc 41 3f ee 24 0d 1e 16 dc 41 3f
       0.0005450351710375703 0.0005450351710375703
000490 ee 24 0d 1e 16 dc 41 3f ee 24 0d 1e 16 dc 41 3f
       0.0005450351710375703 0.0005450351710375703
0004a0 ee 24 0d 1e 16 dc 41 3f ee 24 0d 1e 16 dc 41 3f
       0.0005450351710375703 0.0005450351710375703
0004b0 ee 24 0d 1e 16 dc 41 3f ee 24 0d 1e 16 dc 41 3f
       0.0005450351710375703 0.0005450351710375703
0004c0 ee 24 0d 1e 16 dc 41 3f ee 24 0d 1e 16 dc 41 3f
       0.0005450351710375703 0.0005450351710375703
0004d0 ee 24 0d 1e 16 dc 41 3f ee 24 0d 1e 16 dc 41 3f
       0.0005450351710375703 0.0005450351710375703
0004e0 ee 24 0d 1e 16 dc 41 3f ee 24 0d 1e 16 dc 41 3f
       0.0005450351710375703 0.0005450351710375703
0004f0 ee 24 0d 1e 16 dc 41 3f ee 24 0d 1e 16 dc 41 3f
       0.0005450351710375703 0.0005450351710375703
000500 ee 24 0d 1e 16 dc 41 3f ee 24 0d 1e 16 dc 41 3f
       0.0005450351710375703 0.0005450351710375703
000510 ee 24 0d 1e 16 dc 41 3f ee 24 0d 1e 16 dc 41 3f
       0.0005450351710375703 0.0005450351710375703
000520 ee 24 0d 1e 16 dc 41 3f ee 24 0d 1e 16 dc 41 3f
       0.0005450351710375703 0.0005450351710375703
000530 ee 24 0d 1e 16 dc 41 3f ee 24 0d 1e 16 dc 41 3f
       0.0005450351710375703 0.0005450351710375703
000540 ee 24 0d 1e 16 dc 41 3f ee 24 0d 1e 16 dc 41 3f
       0.0005450351710375703 0.0005450351710375703
000550 ee 24 0d 1e 16 dc 41 3f ee 24 0d 1e 16 dc 41 3f
       0.0005450351710375703 0.0005450351710375703
000560 ee 24 0d 1e 16 dc 41 3f ee 24 0d 1e 16 dc 41 3f
       0.0005450351710375703 0.0005450351710375703
000570 ee 24 0d 1e 16 dc 41 3f ee 24 0d 1e 16 dc 41 3f
       0.0005450351710375703 0.0005450351710375703
000580 ee 24 0d 1e 16 dc 41 3f ee 24 0d 1e 16 dc 41 3f
       0.0005450351710375703 0.0005450351710375703
000590 ee 24 0d 1e 16 dc 41 3f ee 24 0d 1e 16 dc 41 3f
       0.0005450351710375703 0.0005450351710375703
0005a0 ee 24 0d 1e 16 dc 41 3f ee 24 0d 1e 16 dc 41 3f
       0.0005450351710375703 0.0005450351710375703
0005b0 ee 24 0d 1e 16 dc 41 3f ee 24 0d 1e 16 dc 41 3f
       0.0005450351710375703 0.0005450351710375703
0005c0 ee 24 0d 1e 16 dc 41 3f ee 24 0d 1e 16 dc 41 3f
       0.0005450351710375703 0.0005450351710375703
0005d0 ee 24 0d 1e 16 dc 41 3f ee 24 0d 1e 16 dc 41 3f
       0.0005450351710375703 0.0005450351710375703
0005e0 ee 24 0d 1e 16 dc 41 3f ee 24 0d 1e 16 dc 41 3f
       0.0005450351710375703 0.0005450351710375703
0005f0 ee 24 0d 1e 16 dc 41 3f ee 24 0d 1e 16 dc 41 3f
       0.0005450351710375703 0.0005450351710375703
000600 ee 24 0d 1e 16 dc 41 3f ee 24 0d 1e 16 dc 41 3f
       0.0005450351710375703 0.0005450351710375703
000610 ee 24 0d 1e 16 dc 41 3f ee 24 0d 1e 16 dc 41 3f
       0.0005450351710375703 0.0005450351710375703
000620 ee 24 0d 1e 16 dc 41 3f ee 24 0d 1e 16 dc 41 3f
       0.0005450351710375703 0.0005450351710375703
000630 ee 24 0d 1e 16 dc 41 3f ee 24 0d 1e 16 dc 41 3f
       0.0005450351710375703 0.0005450351710375703
000640 ee 24 0d 1e 16 dc 41 3f ee 24 0d 1e 16 dc 41 3f
       0.0005450351710375703 0.0005450351710375703
000650 ee 24 0d 1e 16 dc 41 3f ee 24 0d 1e 16 dc 41 3f
       0.0005450351710375703 0.0005450351710375703
000660 ee 24 0d 1e 16 dc 41 3f ee 24 0d 1e 16 dc 41 3f
       0.0005450351710375703 0.0005450351710375703
000670 ee 24 0d 1e 16 dc 41 3f ee 24 0d 1e 16 dc 41 3f
       0.0005450351710375703 0.0005450351710375703
000680 ee 24 0d 1e 16 dc 41 3f ee 24 0d 1e 16 dc 41 3f
       0.0005450351710375703 0.0005450351710375703
000690 ee 24 0d 1e 16 dc 41 3f ee 24 0d 1e 16 dc 41 3f
       0.0005450351710375703 0.0005450351710375703
0006a0 ee 24 0d 1e 16 dc 41 3f ee 24 0d 1e 16 dc 41 3f
       0.0005450351710375703 0.0005450351710375703
0006b0 ee 24 0d 1e 16 dc 41 3f ee 24 0d 1e 16 dc 41 3f
       0.0005450351710375703 0.0005450351710375703
0006c0 ee 24 0d 1e 16 dc 41 3f ee 24 0d 1e 16 dc 41 3f
       0.0005450351710375703 0.0005450351710375703
0006d0 ee 24 0d 1e 16 dc 41 3f ee 24 0d 1e 16 dc 41 3f
       0.0005450351710375703 0.0005450351710375703
0006e0 ee 24 0d 1e 16 dc 41 3f ee 24 0d 1e 16 dc 41 3f
       0.0005450351710375703 0.0005450351710375703
0006f0 ee 24 0d 1e 16 dc 41 3f ee 24 0d 1e 16 dc 41 3f
       0.0005450351710375703 0.0005450351710375703
000700 ee 24 0d 1e 16 dc 41 3f ee 24 0d 1e 16 dc 41 3f
       0.0005450351710375703 0.0005450351710375703
000710 ee 24 0d 1e 16 dc 41 3f ee 24 0d 1e 16 dc 41 3f
       0.0005450351710375703 0.0005450351710375703
000720 ee 24 0d 1e 16 dc 41 3f ee 24 0d 1e 16 dc 41 3f
       0.0005450351710375703 0.0005450351710375703
000730 ee 24 0d 1e 16 dc 41 3f ee 24 0d 1e 16 dc 41 3f
       0.0005450351710375703 0.0005450351710375703
000740 ee 24 0d 1e 16 dc 41 3f ee 24 0d 1e 16 dc 41 3f
       0.0005450351710375703 0.0005450351710375703
000750 ee 24 0d 1e 16 dc 41 3f ee 24 0d 1e 16 dc 41 3f
       0.0005450351710375703 0.0005450351710375703
000760 ee 24 0d 1e 16 dc 41 3f ee 24 0d 1e 16 dc 41 3f
       0.0005450351710375703 0.0005450351710375703
000770 ee 24 0d 1e 16 dc 41 3f ee 24 0d 1e 16 dc 41 3f
       0.0005450351710375703 0.0005450351710375703
000780 ee 24 0d 1e 16 dc 41 3f ee 24 0d 1e 16 dc 41 3f
       0.0005450351710375703 0.0005450351710375703
000790 ee 24 0d 1e 16 dc 41 3f ee 24 0d 1e 16 dc 41 3f
       0.0005450351710375703 0.0005450351710375703
0007a0 ee 24 0d 1e 16 dc 41 3f ee 24 0d 1e 16 dc 41 3f
       0.0005450351710375703 0.0005450351710375703
0007b0 ee 24 0d 1e 16 dc 41 3f ee 24 0d 1e 16 dc 41 3f
       0.0005450351710375703 0.0005450351710375703
0007c0 ee 24 0d 1e 16 dc 41 3f ee 24 0d 1e 16 dc 41 3f
       0.0005450351710375703 0.0005450351710375703
0007d0 ee 24 0d 1e 16 dc 41 3f ee 24 0d 1e 16 dc 41 3f
       0.0005450351710375703 0.0005450351710375703
0007e0 ee 24 0d 1e 16 dc 41 3f ee 24 0d 1e 16 dc 41 3f
       0.0005450351710375703 0.0005450351710375703
0007f0 ee 24 0d 1e 16 dc 41 3f ee 24 0d 1e 16 dc 41 3f
       0.0005450351710375703 0.0005450351710375703

running_mean_std.count f8 []
000000 00 00 00 10 00 76 76 41
       23552001.0

a2c_network.sigma f4 [4]
000000 00 00 00 00 00 00 00 00 00 00 00 00 00 00 00 00
       0.0 0.0 0.0 0.0

a2c_network.physical_mlp.0.weight f4 [256, 13]
000000 5c c8 c3 3e e5 2f 94 3e f7 16 b6 be 2d 04 78 3f
       0.382388 0.2894279 -0.35564396 0.9688137
000010 e0 1b f1 be 24 65 84 bd 06 27 4a bf 6a 10 14 bd
       -0.4709158 -0.064646035 -0.78965795 -0.036148466
000020 9d d9 fb be ca 9f 88 be ea 2d 00 3f 62 dc 80 3e
       -0.49189463 -0.2668441 0.5007006 0.2516814
000030 fd 8e 05 3e dc 61 f8 be 41 74 16 3e fb 86 30 3e
       0.13042827 -0.4851216 0.14692785 0.17238991
000040 e7 06 7c 3f e1 45 43 be b9 13 98 be 6c 0c ea bb
       0.9844803 -0.19069625 -0.29702547 -0.007142594
000050 5b 7f e9 3e 00 31 9b bc f5 2e 11 be 5c 8a 81 3f
       0.45604977 -0.018944263 -0.14178069 1.0120349
000060 d5 b4 c6 bd fb 1a a0 3e d1 11 23 bf 97 7e 33 bd
       -0.0970246 0.31270584 -0.6369906 -0.043821897
000070 78 d0 ea bd 13 97 b4 be da a2 65 3d 86 4b 3d 3e
       -0.114655435 -0.3527151 0.05606351 0.18485841
000080 19 51 52 3f e0 be a1 3b 70 56 1f bc 21 25 80 be
       0.82154995 0.004936084 -0.009725198 -0.25028327
000090 68 7b 27 be 64 54 48 bd 11 71 50 bd 46 4b 85 bf
       -0.1635567 -0.048908606 -0.05088908 -1.0413597
0000a0 aa c8 d2 bd e2 b1 ec 3d 63 57 e2 3e 24 55 80 3f
       -0.1029218 0.11557366 0.44207296 1.0025983
0000b0 f9 1a 75 3c 60 a5 cb 3e a9 bf d5 3e 2b 6a c9 be
       0.014960044 0.3977461 0.41747788 -0.39338812
0000c0 7d 2d ad 3e 82 b2 5d 3e 89 a2 7d 3e ae 4f 9b be
       0.33823767 0.21650127 0.24769033 -0.30334228
0000d0 e5 22 1b 3f 10 44 0e 3f aa 93 d9 bc 2f 95 87 3f
       0.6060012 0.55572605 -0.02655967 1.0592402
0000e0 d2 f9 98 bf e9 eb 23 3e f3 ff eb 3e cc 69 3e 3e
       -1.1951239 0.16007961 0.4609371 0.18595046
0000f0 4d f4 cc 3d cd 6c 9f bc fc 70 75 3f 75 aa db 3e
       0.10007534 -0.01946106 0.95875525 0.42903486
000100 7d 30 b1 3e 2f e4 06 be 8b c0 28 3e 9e 16 42 be
       0.34607306 -0.13172983 0.164797 -0.1895394
000110 c1 ac 19 bf 2e 28 09 3f 23 26 2e bf a3 18 86 3d
       -0.60029227 0.53576934 -0.6802694 0.06547668
000120 c6 dd 86 3e dc b7 20 3e 86 0a e7 3d ed 94 3f bd
       0.26341075 0.15695137 0.11281304 -0.046772886
000130 ab 60 cb 3d da c2 92 bd 35 f1 2c be ae 03 f2 3e
       0.09930547 -0.07166071 -0.16888888 0.47268432
000140 6f 68 34 bf 68 a8 9e bf b7 bd a8 3d 55 f6 8a be
       -0.70471853 -1.2395144 0.0823931 -0.2714106
000150 b8 42 41 be f2 26 00 3e bf 0f e9 be f8 ce 1d bf
       -0.18873107 0.12514856 -0.45519826 -0.61643934
000160 57 60 a8 be 60 44 af 3e 62 18 89 3e 2f a6 07 3e
       -0.32886 0.34231853 0.26776415 0.13246988
000170 8b e2 25 3e 06 ec db be 27 39 a3 be 99 2a f9 be
       0.161997 -0.4295351 -0.3187954 -0.48665312
000180 38 d9 56 3f 27 b4 04 bf 07 91 c8 bd 9b ee 50 bf
       0.839252 -0.5183739 -0.09793287 -0.81614083
000190 48 42 1c bf 28 f5 3f bf 8f f0 1b be 9d 7c a9 be
       -0.6103864 -0.74983454 -0.15228485 -0.33102885
0001a0 a6 1a b0 3e 9c 70 fc be c0 5c 46 3e 10 84 43 be
       0.3439533 -0.49304664 0.19371319 -0.19093347
0001b0 2d d2 88 bf d2 20 63 be bf ba af 3e 9c 8e 06 bd
       -1.068914 -0.22180489 0.34322163 -0.032850847
0001c0 5d 12 91 3d 0d ce 12 bf eb 7b 89 3e d3 0c 1d be
       0.07083581 -0.5734566 0.26852354 -0.15336923
0001d0 3c 88 c8 bd 2c bf 26 bf 88 35 e1 3e 96 2a dd 3d
       -0.0979161 -0.65135455 0.43986154 0.10799138
0001e0 c3 62 82 3f ea 95 81 be 4f fb 57 3f 2e 63 6e bf
       1.018639 -0.25309688 0.8436784 -0.93120086
0001f0 d4 04 0d 3e 3c 10 a4 3e f8 46 1e 3d b9 94 1b be
       0.13771373 0.32043636 0.0386419 -0.15193452
000200 8d 90 9c be 88 fe 5d be 67 41 bc bd 0c 86 d7 3d
       -0.30579033 -0.21679127 -0.09192162 0.10523614
000210 b7 05 46 be ed bb 84 3f a4 49 b2 3e 57 c6 3e bf
       -0.19338118 1.036985 0.34821808 -0.7452139
000220 c8 61 51 be d9 15 8c 3e 29 81 f1 3c 3e d8 46 3f
       -0.20447457 0.27360418 0.029480534 0.7767371
000230 2f e4 12 3f 58 f9 5e bf 90 82 d9 be 53 ef e8 be
       0.5737943 -0.8709922 -0.42482424 -0.4549509
000240 19 42 99 bd ce d6 25 3f b8 28 c2 be 39 46 9c 3f
       -0.0748331 0.6478089 -0.3792169 1.220893
000250 ad 63 b7 3d 25 4f cf 3e 1d 53 cf be f9 8d ac be
       0.089545585 0.4049007 -0.40493098 -0.33702067
000260 aa 91 95 3e 76 78 e3 3d ca a6 bd bd 9d 99 91 3e
       0.29212695 0.111069605 -0.09260328 0.2843751
000270 4a dc ba be cd 13 c5 be 8f 90 33 3f 7d 7c 91 bf
       -0.36496192 -0.3849167 0.70142454 -1.1366116
000280 1b 83 b9 3e 08 69 63 3c 7b b4 8d 3d 64 63 06 be
       0.36232838 0.013880022 0.069191895 -0.13123852
000290 db ba f9 3e 86 df f3 3e d7 09 18 bf 6d 50 81 3e
       0.48775372 0.47631472 -0.59390014 0.25256673
0002a0 67 b9 8a 3f fe c0 84 bf 6d 92 57 be f1 f7 4a bd
       1.083783 -1.0371397 -0.21051951 -0.04955286
0002b0 1f 8e d2 be c5 2d ba bd 1f 0f e4 3e 9a 56 cb 3e
       -0.41124055 -0.09090761 0.44542786 0.3971451
0002c0 d9 03 6e bf 8b 72 1b 3f b1 da 96 3d ff 36 51 bd
       -0.9297462 0.60721654 0.07365931 -0.05107784
0002d0 e8 de d3 bc d1 e2 a6 3d ed bd e9 3e fb 8c dc 3e
       -0.025863126 0.081487305 0.45652714 0.4307631
0002e0 49 b2 77 3e 26 72 21 bf 9f 13 52 bf 49 2e 17 3e
       0.24189104 -0.630648 -0.8206119 0.1476375
0002f0 8d 28 19 bf de 87 dd bc b2 c6 c1 3c 46 5e 5c 3f
       -0.598275 -0.027042326 0.023654316 0.8608135
000300 38 52 cb be 63 3f cf 3e ed 71 0f be 60 d0 e1 3e
       -0.39711165 0.40478048 -0.14008303 0.4410429
000310 76 d5 66 3f f0 43 56 be 82 d2 11 be 32 d2 45 be
       0.90169466 -0.20924354 -0.14240459 -0.19318464
000320 29 42 c2 be 48 14 81 be b4 1d 26 bf 00 32 57 be
       -0.379411 -0.25210786 -0.64889073 -0.21015167
000330 56 7c 1f 3e b4 80 dd 3e 99 97 73 3c ca 57 8c be
       0.15574774 0.43262255 0.014867687 -0.27410728
000340 83 11 10 be 62 86 c8 3e 33 df 8b be 72 22 66 bf
       -0.1406918 0.39165026 -0.27318725 -0.8989631
000350 ee ef 09 bf bc 3f 06 bf 42 b4 ae bf 2a af 01 bf
       -0.5388173 -0.52441 -1.364876 -0.50657904
000360 45 80 4d 3e c5 20 fe be c3 03 c3 be 75 31 fa 3e
       0.20068462 -0.49634376 -0.38088807 0.48865858
000370 63 e2 29 bf d9 21 1d 3e 11 30 2e 3e 14 62 99 be
       -0.66361064 0.15344943 0.17010523 -0.2995764
000380 56 82 28 3f eb 70 12 3f e8 c7 80 be df 9c a4 be
       0.65823877 0.5720355 -0.25152516 -0.32150933
000390 46 0f a5 3e f3 58 8a 3d 21 dd 82 bd e8 50 46 3f
       0.32238215 0.06755247 -0.06389833 0.77467203
0003a0 90 99 29 3f 31 6e 59 3e cf df 8f bd 3a b5 3a 3e
       0.6624994 0.21233441 -0.0702511 0.18233195
0003b0 60 51 57 3e 7c 6a 21 bf 97 91 40 bf ef 9c 1f be
       0.21027136 -0.6305311 -0.7522215 -0.15587209
0003c0 90 35 cc 3d 16 80 bc bf ac 7a b9 bd 2a a1 8d bd
       0.09971154 -1.4726589 -0.09056601 -0.06915505
0003d0 fd 4e 9b bd 4c 62 06 be ea 66 a2 be 7b c1 aa be
       -0.07583425 -0.13123435 -0.31719142 -0.3335074
0003e0 22 8f bf be 18 5a 09 3f 38 dd b4 bd b7 85 91 be
       -0.3741389 0.536531 -0.08831257 -0.2842233
0003f0 16 b7 81 3e 46 b8 0c bf b3 fe b5 3d 35 f1 65 be
       0.25334996 -0.5496868 0.08886471 -0.22455294

a2c_network.physical_mlp.0.bias f4 [256]
000000 dc 45 05 be a1 a2 7a be 22 f7 99 3e 69 9d a6 3d
       -0.1301493 -0.244761 0.3007136 0.08135492
000010 1f 7f d8 bd 0e 8d fa 3d 17 72 f7 be e7 47 3b bf
       -0.105711214 0.12233935 -0.4832923 -0.7315659
000020 46 3d 80 3d 43 e5 50 bf 77 7c c4 be b7 ef 71 3e
       0.06261687 -0.81599826 -0.3837621 0.236266
000030 29 f1 64 be c7 0b a9 3e 76 b6 25 bf 20 8d 75 be
       -0.2235762 0.33016798 -0.6473154 -0.23979616
000040 7c 52 83 bf c6 6a 48 be ad 3f 4d be f5 c0 45 bf
       -1.0259547 -0.19571981 -0.20043822 -0.77247554
000050 35 dc ce be 26 35 26 bf 98 bb c1 3e 56 ba 0b 3d
       -0.4040238 -0.6492485 0.37838435 0.03411325
000060 ef f2 67 be ce 3c 20 bf 4d 88 b0 bd 8e 56 8f 3e
       -0.22651266 -0.6259278 -0.08619747 0.27995723
000070 5a 19 39 bf 65 c0 0e bf 19 83 42 3d 7a 87 3c bf
       -0.7230431 -0.5576232 0.047488306 -0.7364422
000080 df 33 a0 bf 19 da cb be d2 b3 61 3e 1b 79 0a bf
       -1.251583 -0.39814833 0.22041252 -0.5409104
000090 d7 45 7c bf da 6f b4 be dc f9 05 bf 98 9a 42 bf
       -0.9854407 -0.35241586 -0.5233438 -0.7601714
0000a0 84 fe 79 3e e7 ec 4d bf 7d 7e 0b bf 35 88 ce bf
       0.24413496 -0.8043961 -0.5448988 -1.6135317
0000b0 c3 b2 2a bf cb 33 66 be f3 ba 02 bf ef 62 a7 bf
       -0.6667902 -0.22480695 -0.5106651 -1.3077067
0000c0 db f7 4f bf 5e 42 e8 bc 06 40 06 3f 31 fb d4 be
       -0.8123757 -0.028351959 0.5244144 -0.41597894
0000d0 2a e9 92 3e f9 f7 27 bd ba c4 db be f1 41 7e 3e
       0.28693515 -0.04100797 -0.42923528 0.24829842
0000e0 43 d5 48 bf e8 53 5f bf e1 1d c0 3e 25 08 97 bf
       -0.7845041 -0.87237406 0.37522796 -1.179936
0000f0 40 c2 54 3e a1 b3 26 3f e4 e1 3e bf e6 6a 91 bf
       0.20777225 0.6511784 -0.7456343 -1.1360748
000100 2b 48 48 bf 37 15 1c 3d 40 b3 2c 3e 43 f3 16 be
       -0.7823512 0.03810617 0.16865253 -0.14741234
000110 c6 81 1d be 24 b9 a6 be 12 ae d5 be 0a 36 fb be
       -0.15381536 -0.32563126 -0.41734368 -0.49064666
000120 14 bb a2 be ae 58 91 be 75 0e a2 3c 2e 68 6a 3c
       -0.31783354 -0.2838797 0.019782284 0.014307065
000130 79 5c ff bb 84 f6 32 3d 7f d1 3c be 72 fc 1e bf
       -0.007793006 0.043692127 -0.18439291 -0.6210395
000140 d8 3d b1 bc 01 c8 c2 bd 62 e2 85 bf 2c 59 c3 3e
       -0.021635935 -0.09510804 -1.0459712 0.3815397
000150 ff 87 90 3e ac 5d 23 bf b0 1c 0b bf 0c d3 56 3e
       0.28228757 -0.63814807 -0.5434065 0.20978945
000160 fb 6b 0b bf cb b8 93 3e e7 ee a9 be b9 ef 13 bf
       -0.5446164 0.28851923 -0.3319008 -0.5778766
000170 34 bd 15 bf 00 cb b7 3e ff d6 bc be 78 c2 cd 3c
       -0.58491826 0.35897064 -0.3688278 0.025117144
000180 7d 5b 97 be 0c 02 58 be 7b 31 d3 3e 31 a4 19 bf
       -0.29561988 -0.21094531 0.41248688 -0.6001616
000190 15 f4 e4 3d 5f 30 80 3d 62 f5 57 bc 8c 0f 8a be
       0.111793675 0.06259226 -0.013181062 -0.26964986
0001a0 0a cf c5 be 8c 38 23 bf fb c4 d7 3e 54 7a ca be
       -0.3863452 -0.6375816 0.42142472 -0.39546454
0001b0 03 7b fa be 03 0b 88 bf 13 b6 27 bf 41 42 0d bf
       -0.48921975 -1.062836 -0.655122 -0.5517922
0001c0 c1 be b9 bd 91 14 96 be 92 e4 7f bf 9f 39 46 bf
       -0.090695865 -0.29312566 -0.99958146 -0.7743167
0001d0 af f5 b3 bd 45 1e 53 3e d2 ba af 3d 15 d8 7c be
       -0.08787095 0.20617016 0.08580555 -0.24691804
0001e0 de cd 3a bf 71 e4 10 bf 8f 37 c0 bd 4f 40 05 bf
       -0.7297038 -0.56598574 -0.09385597 -0.5205125
0001f0 ca 28 d7 be 90 61 8d bf 47 3c 37 bf 66 36 78 bf
       -0.42023307 -1.1045399 -0.7157635 -0.96958005
000200 c5 27 0b bf 01 e3 6b bf 43 9e f1 be ea c8 15 be
       -0.5435756 -0.92143255 -0.47191057 -0.14627424
000210 d1 a4 8f be 2d 9d 83 be ab c5 ce be b3 36 d8 be
       -0.28055432 -0.25705853 -0.40385184 -0.42229232
000220 dc 1c d5 3e 08 63 d2 be cf 9c 23 be cd 28 27 3d
       0.4162358 -0.4109118 -0.15977786 0.040810395
000230 65 52 10 bf 79 d1 71 bf d5 d6 93 be f0 fc d1 be
       -0.56375724 -0.94460255 -0.2887484 -0.41013288
000240 f3 02 bc be 65 f8 0f bf 35 de 58 3e 9c 62 84 bf
       -0.36721 -0.56238395 0.21178515 -1.0342593
000250 00 a0 fb bd 23 0e 34 bf 91 e5 64 bf 95 86 09 bf
       -0.12286377 -0.7033407 -0.8941279 -0.5372098
000260 f5 97 e2 be f4 29 ce be 14 e3 a8 be 1a 0c 0b be
       -0.4425656 -0.40266383 -0.32985747 -0.13578835
000270 30 7a 50 3e cd 09 0d 3f bf e8 fd be 4d f2 c7 be
       0.20359111 0.5509308 -0.49591634 -0.39052048
000280 04 f5 45 bf 69 6e 59 be 27 be bc be 4e 05 f0 3e
       -0.7732699 -0.21233524 -0.36863825 0.46879047
000290 7f c3 b4 bd 8b 5e 68 3d 63 2b 14 bf 65 80 3c be
       -0.088263504 0.05673079 -0.578787 -0.18408354
0002a0 8b 17 42 bf 07 f6 f8 be 05 73 0e be 82 a1 e2 be
       -0.75817174 -0.48625204 -0.13911064 -0.44263846
0002b0 ce 02 ad be ba 41 10 3e 53 5f 2c 3d 6f 8f b0 be
       -0.33791202 0.14087573 0.042083096 -0.3448443
0002c0 2d 84 c0 be 6d 5d 11 bf df 6c 0c bf 9d b5 1b 3f
       -0.37600842 -0.5678318 -0.54853624 0.60823995
0002d0 78 b0 5d be b5 1f 2a 3e 11 94 b5 3d 69 f5 49 be
       -0.21649349 0.16613658 0.08866132 -0.19722523
0002e0 9b 7c fd bd 5a 4a 55 be 92 ac 1b 3f 03 db 4a be
       -0.12377282 -0.20829144 0.60810196 -0.19810109
0002f0 07 42 c6 3d 9f 61 a5 bb 58 d4 6a bf 45 94 7d be
       0.096805625 -0.0050470377 -0.9173026 -0.24763592
000300 72 77 ad be 20 15 15 3e 07 b3 a7 be 59 a0 7e 3e
       -0.33880192 0.1455884 -0.32753775 0.24865855
000310 57 07 3d bf 92 f6 e4 3d bf d8 a0 3e 93 69 74 bd
       -0.73839325 0.11179842 0.31415364 -0.059670996
000320 5d e0 39 bf a1 ba ff be 5f d0 4f bf 71 0b 95 ba
       -0.72607976 -0.49947074 -0.81177324 -0.0011371208
000330 40 27 9c bb 82 f6 19 bf de d6 17 3f d6 84 fd 3d
       -0.004765421 -0.60141766 0.59312236 0.12378852
000340 07 fd 07 bf 5a 9b 14 be 35 57 8a 3e 0f 60 6c be
       -0.53120464 -0.14512387 0.2701966 -0.23083518
000350 f0 2f 85 bd 7a e2 5d be f5 6f f5 bc ed 0b c5 3e
       -0.06503284 -0.21668425 -0.029960612 0.3848566
000360 55 ab ec be ec cf 30 bf a3 51 70 be fd 9c a4 be
       -0.46224466 -0.69067264 -0.23468642 -0.32151023
000370 b8 c2 6f bf 8f 37 17 bf 48 e2 c4 be 1c ff 9b be
       -0.9365649 -0.5906915 -0.3845389 -0.3046807
000380 23 63 af be 60 a2 2e bf ea ab 8b be 32 0d 40 be
       -0.34255323 -0.68216515 -0.27279598 -0.18755034
000390 08 e0 ea be 65 19 de 3e 47 f2 9a be d1 5c 82 bf
       -0.45874047 0.4337875 -0.30262968 -1.0184575
0003a0 c3 05 49 be 0e f9 c2 3d 9f 4f 59 be 47 5a 2a bc
       -0.19631104 0.0952016 -0.2122178 -0.0103975
0003b0 25 fd 17 be 7b a9 23 3e 49 f9 36 bf 3b 64 d6 bd
       -0.1484266 0.1598262 -0.7147413 -0.10468336
0003c0 b9 bb 91 bd 21 08 78 be 99 71 ab 3e 17 98 6f bf
       -0.071158834 -0.24221851 0.33485106 -0.93591446
0003d0 d1 bf 85 be eb 70 9a be 9d ba 1a bf 32 ca 4f bc
       -0.26122907 -0.30164275 -0.60441 -0.012682484
0003e0 88 8f 53 bf f0 d2 d2 3c a1 cb a4 be d8 cf 40 3d
       -0.82640886 0.025735348 -0.32186607 0.047073215
0003f0 c5 93 86 be e7 95 f6 be 60 c0 bf 3e a3 be 94 3f
       -0.26284614 -0.4816124 0.37451458 1.1620678

a2c_network.physical_mlp.2.weight f4 [128, 256]
000000 be 0d 1a 3c f4 b2 ec be b0 26 93 3e ba 63 3a bf
       0.00940269 -0.4623028 0.28740454 -0.7280842
000010 4a ac dc 3e c8 0d 64 be 39 04 b1 bf 53 74 08 3e
       0.43100196 -0.22270882 -1.3829414 0.13325624
000020 93 c9 f5 bd 08 57 02 3f 6c 1a d4 be 41 6e 10 bf
       -0.12001338 0.5091405 -0.41426408 -0.56418234
000030 9c 2d cf be 9d a0 ab bd b5 a7 aa be 83 97 b3 be
       -0.40464485 -0.08380244 -0.33331075 -0.35076532
000040 5e fe 33 bf fa 64 34 be 64 18 60 3e c6 dd f9 3e
       -0.7031001 -0.17616645 0.21884304 0.48802012
000050 2c 2c bc bd df ac 44 be 13 96 04 3f 4d 3a 07 3f
       -0.091881126 -0.1920657 0.51791495 0.52823335
000060 35 b2 33 3f 79 bd 67 be e5 75 22 be 8e 8d 05 3f
       0.701938 -0.22630872 -0.15865286 0.5216912
000070 27 b9 0f be d5 fe b8 be f7 78 d1 3e 6b cc 1a c0
       -0.14035474 -0.3613192 0.409126 -2.4187267
000080 12 e6 dc be a1 ed 69 bd f8 a0 d0 3e c6 cc 46 3f
       -0.4314428 -0.057111386 0.4074781 0.7765621
000090 98 76 08 bf 8a c6 20 be 4d e1 87 bd d7 47 84 bf
       -0.5330596 -0.15700737 -0.066347696 -1.0334424
0000a0 73 e7 0f 3f 0f 6e de be 64 be a6 bf d2 d6 c7 be
       0.5621254 -0.43443343 -1.3026853 -0.39031082
0000b0 bc ca 80 3e de db 9d be 32 69 1e 3e a3 1e b0 3d
       0.25154674 -0.30831808 0.15469816 0.085995935
0000c0 44 8a e1 bf dc 27 6e 3e ba 7a ac 3e 49 58 4d 3f
       -1.762032 0.23257393 0.33687383 0.8021284
0000d0 12 57 68 3f bf ac 2f be e5 e7 39 be 40 c1 67 be
       0.9075786 -0.17155741 -0.18154867 -0.22632313
0000e0 41 c2 2c bf 0e c8 da 3d fa 6a 9e be 1b 64 e0 bd
       -0.6748391 0.10682689 -0.30940992 -0.109565936
0000f0 89 36 34 3d 66 d8 8b 3e 24 2b 95 3e 70 ed d0 3d
       0.04399732 0.27313536 0.29134476 0.102015376
000100 ff e7 27 3e de f9 4b bf b1 86 82 be af 46 57 be
       0.16397093 -0.7967814 -0.25493386 -0.21023057
000110 2b 67 8c 3e f0 c0 2c be f0 92 b6 3e d5 15 be 3b
       0.2742246 -0.16870475 0.3565898 0.0058009424
000120 ea ae 53 3e b3 5d fc bf 44 72 e7 3e ae bd c2 be
       0.20672193 -1.9716095 0.45204365 -0.3803534
000130 19 e9 6c be a5 a4 21 bf 71 3d 2e 3d 60 b1 3b 3e
       -0.23135795 -0.6314185 0.042539064 0.18329382
000140 01 61 dc be 3b e9 7b bf 6e 4d 4f 3f ed 14 04 3e
       -0.43042758 -0.98402756 0.80977523 0.12898608
000150 17 b6 06 3f 30 28 19 bd 00 a2 57 bf d5 cc 42 be
       0.526216 -0.03739184 -0.8423157 -0.1902345
000160 67 10 90 be b7 b9 65 bf d1 97 42 be b4 1a 96 3d
       -0.28137514 -0.89736503 -0.19003226 0.07329312
000170 43 58 80 3e 41 af 16 bc c0 1d 39 bf f8 28 75 3e
       0.25067338 -0.009197057 -0.7231102 0.2394141
000180 10 60 3f bf 0b 64 ab be 16 07 32 3f 3d ed 21 3f
       -0.74755955 -0.33474764 0.6954206 0.6325262
000190 fc 6b 60 3d 3e 09 62 bf 7b 28 9c be ae 3a 95 be
       0.054790482 -0.8829535 -0.30499634 -0.29146332
0001a0 e7 d1 fe bd 90 ff d0 be e3 d2 ab be 48 72 46 be
       -0.124423794 -0.4081998 -0.3355933 -0.19379532
0001b0 19 d2 3e bf a8 c2 1e bf 5b 17 cc bf 5d 3f ac be
       -0.74539334 -0.6201577 -1.5944628 -0.33642092
0001c0 56 a1 3e bf 36 94 97 be c7 fa 9d 3e 28 25 ae 3e
       -0.7446493 -0.29605263 0.3085539 0.34012723
0001d0 62 ee 2c bf 9b dd fd bd 75 95 d1 be 30 e9 d2 be
       -0.67551243 -0.123957835 -0.4093434 -0.41193533
0001e0 d4 ae 5e 3e 19 c7 c3 3c a2 60 ff 3e 8e bd b5 3e
       0.21746379 0.023898648 0.49878412 0.3549618
0001f0 ab 06 5a be 03 4e f5 be dd f0 50 3f 47 9c 22 bf
       -0.21291606 -0.4791108 0.8161753 -0.6351971
000200 cc f8 68 3f 62 1a 6b 3f 13 88 d3 be db 40 00 be
       0.91004634 0.9183713 -0.41314754 -0.1252474
000210 59 be 43 3f 5c 6a ef be 61 06 11 bd e5 24 e9 be
       0.7646232 -0.46760833 -0.035406474 -0.4553596
000220 69 a5 ba 3e f7 37 34 bf 4d 56 1b 3f 67 74 5c bf
       0.36454323 -0.70397896 0.6067856 -0.86115116
000230 91 aa f0 3e 48 51 15 bf 3f 24 44 bf 0e fb a3 3c
       0.47005132 -0.5832715 -0.7661781 0.020017173
000240 80 f6 06 3f c3 fe 15 3f 27 84 1b 3f b5 f8 08 bf
       0.5271988 0.5859186 0.60748523 -0.53504497
000250 e0 5c 70 be 64 d7 42 3f bc bc ec 3e 20 b3 0b 3f
       -0.23472929 0.7610991 0.46237743 0.545702
000260 b0 4a 3b 3f 27 e8 32 be ea cd d0 be 41 56 2d 3e
       0.7316084 -0.17471372 -0.407821 0.16927435
000270 c8 65 6d be 49 a2 01 3f 53 ac f2 be df e1 1c 3d
       -0.23183358 0.5063825 -0.47397098 0.038301345
000280 0c 01 4d bf 2c aa 01 be 10 1e 07 bf 8d be 88 be
       -0.8007972 -0.12662572 -0.52780247 -0.2670788
000290 18 18 40 bd 68 7b dc be 77 df 3d 3f 5d a8 cd bf
       -0.046897978 -0.43062901 0.74169105 -1.6067005
0002a0 b4 70 68 bf 8b 61 af 3e 58 e2 6f 3d 6c a4 13 3f
       -0.9079697 0.34254107 0.058565468 0.5767276
0002b0 eb b5 d4 be e7 d0 45 3e d1 5c 10 bf a6 05 96 3e
       -0.41545042 0.19317971 -0.56391627 0.29301184
0002c0 be 4a c0 bd ea fe 7c bf 1d 16 49 be 4d 95 7d be
       -0.09389256 -0.9882647 -0.19637342 -0.24763985
0002d0 83 ed 66 bf 19 70 78 3d ff cf 9a 3e 69 c8 74 bf
       -0.90206164 0.06065378 0.30236813 -0.956183
0002e0 57 ac c1 bd 39 1c b8 be 39 b2 98 3e a0 93 81 be
       -0.09456699 -0.35959032 0.29823473 -0.2530794
0002f0 35 92 75 bf 34 02 85 be 84 4b 58 3d 13 4a 10 3c
       -0.9592622 -0.25978243 0.052806392 0.008806723
000300 a7 4e 21 be 13 d8 7e 3e 1e 57 97 3e fa 26 96 3c
       -0.1575266 0.24887113 0.29558653 0.018329132
000310 54 ea 36 3f 5a 2b 42 3f 1c 45 8b be d0 f6 85 bf
       0.71451306 0.758474 -0.27201164 -1.0465946
000320 3b cb 85 be ea 03 71 be 6e e8 f6 be 5f 93 7e bd
       -0.26131615 -0.2353665 -0.48224205 -0.062152263
000330 42 54 5d be b9 06 62 3f 3c 72 ac 3e 0c e0 2b 3e
       -0.21614173 0.8829151 0.33680904 0.16784686
000340 88 2b fc be 66 bf 82 bc dc af 2d bc c2 1c 91 bf
       -0.49251962 -0.015960407 -0.01060101 -1.1336901
000350 4e b1 a8 3e a7 b5 b7 3d 22 ec 20 bf 2e 42 fd 3e
       0.32947773 0.08970194 -0.6286031 0.49464554
000360 a0 bc 51 bf 2f c8 ed be 10 8c a0 bf 16 1d ea bf
       -0.81928444 -0.4644179 -1.2542744 -1.8290126
000370 27 6f d0 bc e4 20 6d 3e c9 af 92 bf a7 a1 6d be
       -0.025443627 0.23157078 -1.1459895 -0.23206197
000380 2c 56 13 be ff ba ac bf c3 5e fc 3d b9 e2 a5 3e
       -0.1438834 -1.3494567 0.12322762 0.32399538
000390 24 86 06 bf a2 a6 c6 3e 36 fb d0 bf c4 4c ff be
       -0.5254843 0.38799006 -1.6326663 -0.49863255
0003a0 5e 35 71 3e a2 b3 d9 3e f6 30 34 be 75 20 9b 3e
       0.23555514 0.4251986 -0.17596802 0.302982
0003b0 ea 48 f3 be 02 2d e3 be ec b4 e3 bc 8e 9f b7 be
       -0.47516567 -0.44370276 -0.027796231 -0.35863918
0003c0 4e c5 fb 3e 7d da 3b 3f f3 73 8c 3e 46 b6 60 3f
       0.4917397 0.7338026 0.27432212 0.8777813
0003d0 2f de dc be a7 0e ce 3e b0 82 e5 bf 1e af ac 3e
       -0.43138263 0.40245554 -1.7930508 0.33727354
0003e0 fc 0e 00 bd 2d fd 85 3e 21 7e 6b 3e 2f d8 1c 3e
       -0.03126429 0.2616972 0.22997333 0.15316842
0003f0 18 88 03 bf 5d 33 60 3e c1 1d d2 bf f5 4f 8e 3c
       -0.5137954 0.21894594 -1.641533 0.01737211
